Combat Sports Counter/models/transformer_model.pth (torch, 282690 bytes, 28 tensors)

embedding.weight f4 [64, 7]
00000000: a14d 47be a9f6 98be 5a7a 32be d683 2c3e
00000010: f61b 883e 7b4b 983d 0ff2 7dbd 1353 8f3e
00000020: 5fbe 923d 2c12 ab3c d84e 76bd f620 a23d
00000030: 7242 34be 46b6 b7be 2e4b a5bd d202 493e
00000040: 9095 343e 9f4f dcbc 09dc 6fbe d962 c4be
00000050: 9465 1cbe a2e1 7fbc 2f1b 6f3e f7ad 20be
00000060: ac53 953e 12a3 50be 57c1 bc3e ff16 d4bd
00000070: d548 97be 3fad acbd 9c9d ffbd c229 f9ba
00000080: 2073 ed3d 9cd9 abbe 866f b63e 1bd2 7ebe
00000090: 1fdf 8e3e e730 3dba 3736 9e3e cad0 4f3e
000000a0: 2e1d 813e aa76 533e f3dc 983e 3cf7 4ebc
000000b0: a187 7e3d 7a47 c4bd 5ef6 34be 25bc b5be
000000c0: 8df0 b03e b140 b2be 1bcb 963e 2410 9cbe
000000d0: 49c3 643b 55fb 97bd 8ce2 cbbd 545a e63c
000000e0: 1ad8 9f3e 25d1 61be 4904 d1be 247c 693e
000000f0: bf76 c5be 85cc 9abe ea7b 8b3e 2602 eebd
00000100: f4a0 37be afe2 2abe f025 90be f0df 1dbe
00000110: 1c58 883e 3380 bfbd e891 133e 562f abbe
00000120: a6e9 833e ebeb 113e d6c0 663e 2c53 a33e
00000130: c39c b53e 840f 503e 9b75 97be 8de0 93bc
00000140: 350a 54be 1ede 413e 8083 02be 8d1b adbc
00000150: 1a1b 97bd 04b9 a93d db41 8a3d 7f10 d13c
00000160: a54d 9b3e c696 b1be 9c61 a53e c241 1a3e
00000170: 4efd fc3d ce89 b13d 8d49 1c3e c772 683e
00000180: cef2 023e 2258 3d3d 6698 1abd f254 ef3c
00000190: 0058 a53d 0f8f f83b 7137 65bd b343 593e
000001a0: c916 b53b c788 84bd fbd3 a6bd c865 abbe
000001b0: e746 b2be 0351 c53e 6eae c03e 3a5f f4bd
000001c0: a370 c4be af4b af3e accb b4be 7e84 bbbe
000001d0: 4da8 8a3e c365 923e 3356 253d 0d97 653e
000001e0: 640c 12be 9eb6 b5be 742f 8ebe 6d05 aabe
000001f0: 3a82 2d3d ed3c b93e 94b2 5d3e 206d 663e
00000200: 1318 a3bd b018 84bd d7fe a4be d6bf 563d
00000210: 1071 6abe c42b e73d 139f 3abe f76d ba3d
00000220: fbe0 ebbd 9b13 abbe 46e7 babd 96d6 10be
00000230: 3193 1bbc 6592 c3be e494 2fbe 135d 41be
00000240: 54f4 7b3e ed2f a33c 58f2 3cbe 0ca4 353e
00000250: 904e 5a3e 8d03 3c3e e925 1cbe 134c 42be
00000260: 6724 3f3e 3ab1 813e cb8a 733d d61e 81bc
00000270: 2ffc 80bd 7fbb 30bb 0fdf 7c3e 3b5d aabe
00000280: 0c5f 993e 4633 b53e e08f 6e3b 922f 4cbd
00000290: ad48 02be 6fc4 bb3e b5bb a0be 50e0 ba3e
000002a0: 1559 3a3e 695a a73d 86ae 5b3d 5166 203e
000002b0: a4e2 be3e 878d 853d cd15 313d dd77 9bbe
000002c0: af94 64be 5910 a43e 2cc4 afbe 64eb 8d3b
000002d0: 0c98 6bbe 36b4 583e e643 9abe ad75 903e
000002e0: 4a8a 3c3e 019f 23be b683 9fbe 4ad0 d7bd
000002f0: d8be 6d3e c3a1 923e c06b 9c3e f8c2 f6bd
00000300: 3369 563e 5901 723e ed69 babe 48fc 42be
00000310: a992 a23e 1785 afbd 613f 1e3c 1435 f9bd
00000320: 9151 de3c 1e06 9f3d fd18 ec3d 6366 35bd
00000330: 733e 60bd 5866 b83c 44cd aebe 4561 bb3e
00000340: d724 3f3e 4bf6 e4bd 9a86 8ebe 1b5a 043e
00000350: 0a26 8fbd d75d 99be 2030 953e 0968 7dbe
00000360: b383 433d bd23 62be 96f6 b83e f9e0 273e
00000370: 6211 84be af03 b93e 9010 113e 3010 8fbe
00000380: 3cf2 38be 9a48 eb3d ce56 f03d e7ff 88be
00000390: 0ed4 a43e e686 8f3e 412c c93c 34cf a33e
000003a0: 64f5 973e 1d47 883c ddca 923d c91a 0a3e
000003b0: 609d 803d 887d 233e 96e2 49be 7dfe f0bd
000003c0: 49d5 c53e 9c02 28be 8b47 97bd ddfd c53c
000003d0: b91f 6cbe 9873 ad3e a8ed 84be 812f b7bc
000003e0: c29a fd3d 7a42 9dbc b138 e13d 3428 c1be
000003f0: ef29 7b3e 3e30 7abe 6b26 c5be e99c 7dbe
-0.19463207 -0.29875687 -0.17429486 0.16847166 0.26583833 0.07436272 -0.061998423 0.27993068
0.07165217 0.020882688 -0.060133785 0.07916443 -0.17603472 -0.3588125 -0.0807098 0.19629982
0.17635179 -0.026893435 -0.2342378 -0.38356665 -0.15273124 -0.01561776 0.23350213 -0.15691362
0.291654 -0.20374706 0.36866257 -0.10355949 -0.29547754 -0.084314816 -0.124812335 -0.0019009637
0.11594224 -0.3356446 0.3563196 -0.24884836 0.27904603 -0.0007217065 0.30900738 0.2029449
0.25217575 0.20650735 0.2985607 -0.012632187 0.062141065 -0.095839456 -0.17672107 -0.35495105
0.34558526 -0.3481498 0.29451832 -0.30481064 0.0034906438 -0.07420985 -0.0995532 0.028119244
0.3121956 -0.22052439 -0.40823582 0.22801262 -0.3856716 -0.3023416 0.27242976 -0.116215035
-0.17932492 -0.16688035 -0.28153944 -0.15417457 0.26629722 -0.09350624 0.14411128 -0.33434552
0.25764197 0.14250152 0.22534499 0.31899393 0.35471162 0.20318419 -0.29581913 -0.01805141
-0.20707019 0.18932387 -0.12745476 -0.021131301 -0.07378216 0.08287242 0.06750842 0.025520561
0.30332676 -0.34685344 0.32301033 0.15064147 0.123530015 0.08668862 0.15262432 0.22700034
0.12787935 0.046226628 -0.037742995 0.02921531 0.08073425 0.0075854133 -0.055961076 0.21217231
0.005526398 -0.06471401 -0.08145901 -0.3347609 -0.3481972 0.3853837 0.3763308 -0.119322255
-0.38367185 0.3423743 -0.3531164 -0.3662452 0.27081528 0.28593263 0.04036541 0.22420903
-0.14262539 -0.35490888 -0.2777058 -0.33207265 0.04236052 0.36179295 0.21650153 0.22502565
-0.07963576 -0.06450021 -0.32225677 0.052429043 -0.22894692 0.112876445 -0.18224744 0.091030054
-0.11517521 -0.33413395 -0.09126143 -0.14144358 -0.009495542 -0.38197628 -0.17146641 -0.18883161
0.24604923 0.019920314 -0.18451822 0.1773836 0.21319032 0.1836073 -0.15248837 -0.18974333
0.1866623 0.25330526 0.059458535 -0.015761774 -0.062981 -0.0026967225 0.24694465 -0.33274254
0.29955328 0.3539068 0.0036401674 -0.049850054 -0.12723036 0.36673304 -0.3139321 0.36499262
0.18198045 0.08171541 0.053633235 0.1566403 0.37282288 0.06521135 0.04323368 -0.30364886
-0.22322343 0.32043722 -0.34329355 0.0043310393 -0.2300722 0.21162495 -0.30129927 0.2821478
0.18412128 -0.15978624 -0.31155175 -0.10537775 0.23217332 0.2863904 0.30550957 -0.12048906
0.20938568 0.23633327 -0.3640894 -0.1904155 0.31752518 -0.08570307 0.009658665 -0.12168327
0.027138503 0.07764839 0.11528204 -0.044287097 -0.054747056 0.022509739 -0.3414098 0.36597648
0.18666397 -0.11179789 -0.27837068 0.12924998 -0.06989677 -0.29954407 0.2913828 -0.24746718
0.04773302 -0.22083946 0.3612563 0.16394414 -0.25794512 0.36135623 0.14166474 -0.27942038
-0.18061155 0.11488457 0.11735307 -0.26757738 0.32193035 0.28032607 0.024557235 0.3199402
0.29679406 0.016635472 0.07167599 0.1348678 0.06280017 0.15965855 -0.19715342 -0.1176729
0.38639286 -0.16407245 -0.073866926 0.024168903 -0.23058976 0.33877254 -0.25962567 -0.022361519
0.12383033 -0.019196738 0.10997141 -0.37725985 0.24527715 -0.24432465 -0.38505873 -0.24766888

embedding.bias f4 [64]
00000000: 511a b5be a459 7cbe dab5 c03e 6e87 ac3e
00000010: c1d2 5b3e 342a 84be ce29 96be 2b00 8e3d
00000020: 87a6 86be 9db2 66be 32d1 81bd 4a62 19bc
00000030: 079f 98be 76ae ad3d 00e5 d13d 95c7 bb3d
00000040: 93d2 50be 89f3 ab3e 1c4b 263e 238f 973e
00000050: 510a b23e afe6 a63d a9e7 953d 5609 12be
00000060: f02b 823e f7ce 52be 01cd abbd 0674 11be
00000070: 57d8 373e 1f47 083e 2dbb 8c3e 774a 29be
00000080: 9c55 3c3e 119c 4dbe 8756 533e f2af 813e
00000090: 20fc cdbd a9ff 9f3e a126 923e 8533 5a3e
000000a0: 0556 003e d752 173c 7f4e 1bbe 271b 4b3e
000000b0: 3fc6 8f3d 2614 103e 2eb9 693d 0efb 753d
000000c0: ec49 8d3e b322 7ebe 78f5 83be 43be ba3e
000000d0: 5f78 8cbe 70f3 abbe fabe 633e 6c4d 01bd
000000e0: 2b1d e4bd 8ee3 5c3e 05c8 ec3c 475e 9cbe
000000f0: fa6d 543e 3937 9c3e ea0c fabd 664b 073e
-0.3537164 -0.2464357 0.37638742 0.33697075 0.21467115 -0.25813448 -0.2932877 0.06933626
-0.26298925 -0.22529073 -0.06338729 -0.009361813 -0.29808828 0.084805414 0.102487564 0.091689266
-0.20392828 0.3358424 0.1623959 0.29601392 0.34773496 0.08149468 0.07319576 -0.14261374
0.25424147 -0.20586763 -0.08388711 -0.14204416 0.17953621 0.1330838 0.27486554 -0.16532312
0.18392032 -0.20079066 0.20638476 0.25329548 -0.10057855 0.3124974 0.28545097 0.21308716
0.12532814 0.009236059 -0.15166663 0.19834577 0.07020234 0.14070186 0.057061367 0.060053878
0.2759546 -0.24817924 -0.25773215 0.36473283 -0.27435586 -0.33584166 0.2224082 -0.031567976
-0.11138376 0.2157118 0.02890397 -0.30540678 0.20745078 0.30510882 -0.122094944 0.13212356

transformer_encoder.layers.0.self_attn.in_proj_weight f4 [192, 64]
00000000: b4e0 e33d 5da0 183d 90a6 b33d 8c5f cb3d
00000010: 81ab 86bd ab12 4b3c 52f3 e23d 067d 22bd
00000020: 18af 80bd 1f42 a33d 5378 61bd d3b4 2d3e
00000030: a566 de3d d900 d53d 2005 ddbb a91c b53d
00000040: b866 abbd b19b fc3d 68e2 cc3c 99a9 3c3c
00000050: 4203 1e3d e8da bcbd 46d3 0b3a 46ab ebbd
00000060: 15ed 00bd 4035 2abd 486f df3d 49bb e73d
00000070: 3028 91bd 16ff 293d 334f 7a3d 1966 ec3d
00000080: 113f cb3d b219 89bd 2e13 0e3d 9046 ae3d
00000090: 166c 043e cad7 58bd d835 febc d40b a33d
000000a0: ef67 edbd ce45 83bd f003 a2bc 0063 f03d
000000b0: 06fc a43d 5f15 1ebd 33fb 753c 1e58 4e3c
000000c0: 8156 ac3d d17d 1cbe 541c f5bd 88ac ff3c
000000d0: 2fd9 273e b391 cb3c 1983 bf3c 2c41 16bc
000000e0: 2473 7e3c 89ae 7cbd a71f 02be 2eee 7dbd
000000f0: 2001 0b3e b901 6d3d 3833 cdbd e80f 733d
00000100: d436 603d d148 24bd e706 943d 5276 fc3d
00000110: 9ce7 b23d d77e f8bd 2cef 45bd 3469 dc3d
00000120: 21bb 70bd cc33 afbd 7049 29be d602 a33c
00000130: ad53 f23d 6355 2ebd 90f4 833d 2358 bd3d
00000140: ab11 fd3d 5dd9 fdbd b763 a5bd 6c36 32be
00000150: 4c87 dabd 3eef c2bc 4178 b6bd 1451 eb3d
00000160: 7dc7 bfba c4aa f8bd 9db6 3fbd 2877 363e
00000170: 8ab4 25bd e888 f8bc 08aa 63bd e755 de3d
00000180: 133f f0bd 1c7e 8b3d 42c6 50bb 3002 e5bd
00000190: 8fb1 d73d fffb ac3d 9d86 d63d 2a4d 44ba
000001a0: ffce d0bd bb6a b5bd e8de d5bd 47d1 49bd
000001b0: d264 f3bd 6b52 ee3d cbf1 36bd bd6b dd3c
000001c0: e7a9 ddbc 5d98 e2bb 9ba2 fe3d 5285 d8bb
000001d0: b7f4 e6bc 566e 57bd d087 8cbd 9ddf d5bc
000001e0: 9071 96bc cef7 3b3e 080e 93bd 8066 96bd
000001f0: 420a 583d 38c3 bc3d bcdc 91bb 5656 17bb
00000200: b5ba 06be 99da 9d3d 4815 06be c9af b73d
00000210: e48c 7bbc 5bab 03be 5264 61bd 7cc7 c4bd
00000220: 3af0 193e 07e4 193d fed7 3d3c 9032 72ba
00000230: 6c54 bf3d b5e1 12bd 6733 97bd 5cc2 d1bd
00000240: c879 09bd 4a4e b23d 9caf 0abe db3d 8abd
00000250: 48b3 d2bd b118 b53d f16e 0dbe 3a12 343d
00000260: 6dd8 8ebd 84ee a8bb dea0 edba 9439 f7bb
00000270: 36d4 85bd faaa 21be d920 f63d a112 12bd
00000280: a525 ddbd e7f8 57bc 3256 ca3d 5660 6cbd
00000290: 5904 07bb a3b6 2d3e e3be e2bd 4b1d 03be
000002a0: a7c3 023e 4dea 1abe 2ea3 9e3d 6779 07bc
000002b0: c22e cf3b 25ea 093d 8ed3 953d 94f6 093e
000002c0: d0be 203d 6eeb 083e 6bba 06bd 5078 3dbe
000002d0: 147f c8bb 81f7 9cbd cd6d 043e 72d3 0dbd
000002e0: b848 7fbd 9ee5 253d 4b22 c33d 3d35 11bd
000002f0: 5984 463d 816c 5a3d ddf7 06be e576 cbbb
00000300: de33 06bc 402e af3d 8b23 6dbd 7561 ca3d
00000310: 3d3e 00bd b797 113c 4ce3 c33d 6573 1abe
00000320: f3c8 183e 4077 063e 848c 10bd bd6c 0039
00000330: 4fba 13be 7062 1b3e d10c b5bd 2ce0 ec3d
00000340: c971 0c3e 6ba0 edbc b760 0fbe 26f7 363d
00000350: d0cd cbbd f4d6 e63d 02b2 18be 9f83 d93d
00000360: c9fc 96bd e342 c43c c1fc 623c 70bd 7fbd
00000370: d0d2 ab3d c047 8abc 0088 babd e55d 923c
00000380: 807a 5ebd c451 eebd 7009 373d a225 213e
00000390: d3ea f9bd cb5d d73d 999a 463b 3bbd 943d
000003a0: 5931 43bd 92d6 033e 99d2 103e ed69 953d
000003b0: c77b a0bd 29fc a5bd 4da1 56bd 7a68 e5bc
000003c0: a470 1b3e 1306 813d 3a52 f43d 2331 f4bc
000003d0: 20df fdbd dbb7 943d e7a7 10bc f89b c83d
000003e0: 2d17 0d3c d6c0 8c3c 7594 d33d df6e bfbd
000003f0: f33e 333d 2c30 65bd 2bfa bf3d 5204 4d3b
0.11126843 0.03726231 0.08772004 0.099303335 -0.065756805 0.0123945875 0.11081566 -0.039670013
-0.062833965 0.07971596 -0.05504639 0.1696351 0.10859422 0.10400552 -0.0067449957 0.08843357
-0.083692014 0.12334383 0.025010303 0.011515045 0.038577326 -0.092214406 0.00053339114 -0.11507277
-0.0314761 -0.04155469 0.10909897 0.11315019 -0.07087743 0.041503035 0.061110687 0.11542911
0.09924138 -0.06694354 0.03468626 0.085095525 0.12931857 -0.052940167 -0.031031534 0.079612404
-0.115920894 -0.064097986 -0.019777268 0.11737633 0.08055882 -0.0385946 0.015013504 0.012594251
0.08414937 -0.1528237 -0.11968294 0.031210199 0.16391443 0.024849748 0.023377942 -0.009170812
0.015530381 -0.061689887 -0.12707387 -0.061994724 0.13574648 0.05786297 -0.10019535 0.05934134
0.05473979 -0.040108506 0.07227879 0.12327255 0.08735582 -0.12133568 -0.048323795 0.107622534
-0.05877221 -0.08554801 -0.1653192 0.019898813 0.11832366 -0.0425619 0.06443131 0.09245326
0.123568855 -0.123949744 -0.0807566 -0.17403573 -0.10670337 -0.02379572 -0.08909655 0.11490074
-0.0014631596 -0.12141946 -0.046805013 0.17818892 -0.04045538 -0.03033872 -0.055582076 0.10856228
-0.117307805 0.06811163 -0.0031856452 -0.11182058 0.105319135 0.08446502 0.10474894 -0.0007488305
-0.10195731 -0.08858248 -0.104429066 -0.049271848 -0.11884464 0.11636814 -0.044664185 0.027028913
-0.027058555 -0.006915136 0.12433358 -0.00660769 -0.028192861 -0.05259546 -0.06861842 -0.026107604
-0.018364698 0.18356249 -0.071804106 -0.07343769 0.052744158 0.092169225 -0.0044513624 -0.0023092232
-0.1315716 0.0770771 -0.13094056 0.08969075 -0.015353415 -0.12858336 -0.055027314 -0.09608361
0.15033045 0.03757098 0.011587141 -0.0009239102 0.09342274 -0.035859782 -0.07382851 -0.10242149
-0.033563405 0.08706339 -0.13543552 -0.06750079 -0.102881014 0.088426 -0.13811852 0.043962695
-0.06974874 -0.0051553864 -0.0018129607 -0.0075447056 -0.06534617 -0.15787879 0.12017984 -0.035662297
-0.10798196 -0.013181902 0.09879722 -0.05770906 -0.0020601957 0.16964202 -0.11071565 -0.12804143
0.12769948 -0.15128441 0.07745968 -0.008268691 0.0063227126 0.033670563 0.073157415 0.13472968
0.039244473 0.1337106 -0.032892626 -0.18502927 -0.0061186645 -0.07664395 0.1293251 -0.034625478
-0.06232521 0.040502183 0.09528025 -0.035451163 0.04846606 0.053326134 -0.1318049 -0.0062092417
-0.008191077 0.08553743 -0.057895225 0.0988187 -0.031309355 0.008886269 0.09564838 -0.15083082
0.14920406 0.13131428 -0.035290256 0.0001224754 -0.1442654 0.1517427 -0.08840335 0.11566195
0.1371528 -0.029007157 -0.14001738 0.044669293 -0.09951365 0.11271468 -0.14911655 0.10620808
-0.07372434 0.023957675 0.013854207 -0.06243652 0.08389819 -0.016879916 -0.09107971 0.017867038
-0.054316044 -0.11636689 0.044686735 0.15737012 -0.12202992 0.105159365 0.003030455 0.07262655
-0.047654483 0.12874821 0.14142837 0.07295594 -0.07836109 -0.08104736 -0.052399922 -0.02800392
0.15179688 0.06299987 0.11929746 -0.029808586 -0.12396073 0.0726163 -0.008829094 0.09795374
0.008611483 0.017181795 0.1033105 -0.09347319 0.043761205 -0.055954143 0.09373888 0.0031283093

transformer_encoder.layers.0.self_attn.in_proj_bias f4 [192]
00000000: 30df b33c 9fb2 68bc 81a3 74bc 61f5 573b
00000010: 0be7 763b 440b f83a f7d2 01bc 1f2e ec39
00000020: ed8e ae3c d2c0 423b 17fb 6dbb 2adf b83c
00000030: 5fb8 2a3d a49d 4f3b 1f9e a8bc bf42 a4bc
00000040: 2fad 893c cd22 de3c a8e5 5dbc 055f 98bb
00000050: 1dc0 653c e059 3a3c af46 2cbc 2950 853b
00000060: d55c 013d 727c 663c 7b82 403c c619 a53b
00000070: ab05 67bb 06f0 b2bc 58c2 9abc bdcf 863b
00000080: 1e08 3f3b b221 8abc 1b5e df3b a4ce b23c
00000090: 432d d6bc f4c3 953c 31b2 e13b 35c9 063a
000000a0: 1bf5 98bc 04c4 d53c 8dec 27bd 2acc 093d
000000b0: 8c29 d93c 4554 71bb e407 1f3d 81c4 87bc
000000c0: e9fa cd3c 1733 1a3c 07b5 2dbb 2cb4 15bd
000000d0: bb82 b03c 8ae3 b43c d5e8 12bd 56cd 0dbb
000000e0: 8d8f fbbc b3f7 ea3c ee05 89bc 82a1 0bbd
000000f0: c7e1 06bc 251f d33c 6fa9 acbc a138 15bd
00000100: 5aaf 41b8 2bb4 ba37 bfdc 0c38 8e93 aab8
00000110: a7a9 b938 fe3f 2238 4283 aab8 046b a938
00000120: 52e5 e436 af16 70b8 046d dc37 de54 0db9
00000130: 73ea 16b9 3234 acb8 e8f5 f137 030c b3b7
00000140: 4e45 1d38 1b81 5038 4cdd 2c38 93f0 e838
00000150: 2720 d837 7323 e3b8 520f ca38 8d18 0739
00000160: 8bda 8238 7b24 9cb7 8ea6 cd37 e1bf 0eb7
00000170: 6838 d038 f7a7 fb37 e639 96b8 d8dc b9b7
00000180: 8c20 cfb7 d123 65b9 5160 da38 3e54 3bb8
00000190: b99e e0b7 f8e4 dcb8 f972 40b9 981d 0c39
000001a0: 8583 bab8 d5ea 5eb9 fd52 eab8 6a36 0838
000001b0: c3ff ec38 80f5 f2b8 3ac3 8338 7e33 64b9
000001c0: d452 5339 8b82 1f38 ee27 d038 2914 7cb7
000001d0: 7841 3039 f4e7 b638 fbce f7b8 8eab 83b8
000001e0: c23b bab8 e5da f8b8 523c ec38 2505 e736
000001f0: 351a 3338 c80a c038 f366 25b9 58f7 40b8
00000200: d222 b2bb d797 15bc 6aa0 e53b 8acf c5bb
00000210: 0323 1bbc 3f5a c9bb a2a8 8cbb aa66 f0b8
00000220: d2f1 93bb 6061 1cbc d183 17bc 0728 273b
00000230: 7a8c 133b 6054 e73b c081 483c 4dd4 343c
00000240: 5616 0c3c 19dd 3c3c 22ad 78bc 2b56 d1bb
00000250: 664c 8a3b 0cde 01b9 0b73 d3bb fca8 fa3a
00000260: 3df4 17bc 60e4 163c 58a0 44bc ee91 3e3c
00000270: a946 e7bb 2268 26bb 3c5e d6bb 55ca 1a3b
00000280: 7d48 f33b 1edd 65bc 7996 82bc fded 913b
00000290: 4e20 44bc 1aaf 0bbc 61f7 e23b 559a fbbb
000002a0: a5f9 983b fea7 64bb a3fc 753b 6111 a43b
000002b0: 36b7 beb9 cf4e 953b 4065 ec3b bcff 42bb
000002c0: 40b9 a2ba d4e4 16bc 8214 4bbc 3239 e0bb
000002d0: 5286 06bc c33a 79bb db09 49bb ca0e cdbb
000002e0: b5c8 31bc 31be 92bb f5d9 043b e262 e13b
000002f0: ab03 c23b 40f8 3fbb 1f37 403c 10f2 1abc
0.02195701 -0.014202743 -0.0149315605 0.0032952654 0.0037674333 0.0018924256 -0.007923833 0.0004504779
0.021308387 0.002971698 -0.0036312991 0.02256735 0.041679736 0.0031679654 -0.02058321 -0.020051358
0.016806213 0.027116204 -0.013543524 -0.004649999 0.014022854 0.011373967 -0.010514899 0.0040683937
0.031582672 0.014067756 0.011749859 0.005038473 -0.003525118 -0.021842968 -0.018891498 0.00411412
0.0029149125 -0.01686177 0.006816638 0.02182705 -0.02614463 0.018281914 0.006887697 0.00051416765
-0.018671563 0.026094444 -0.040997077 0.03364197 0.026509069 -0.003682391 0.038825884 -0.016573193
0.025144057 0.009411595 -0.0026505606 -0.03654878 0.021546712 0.022081155 -0.035866577 -0.0021637282
-0.030708099 0.028682565 -0.01672646 -0.034089573 -0.00823254 0.025771687 -0.021076886 -0.03643096
-4.6178095e-05 2.2256825e-05 3.3584187e-05 -8.133716e-05 8.853088e-05 3.8683407e-05 -8.13068e-05 8.078481e-05
6.821626e-06 -5.7241585e-05 2.6276808e-05 -0.00013478423 -0.00014392454 -8.211321e-05 2.8843948e-05 -2.1344056e-05
3.7496262e-05 4.9711303e-05 4.1214094e-05 0.000111074325 2.5764179e-05 -0.000108308064 9.634964e-05 0.00012883749
6.23959e-05 -1.8613637e-05 2.4515462e-05 -8.508535e-06 9.9287194e-05 2.9999746e-05 -7.163342e-05 -2.2156557e-05
-2.4691479e-05 -0.00021852484 0.000104129904 -4.466273e-05 -2.6776792e-05 -0.00010533066 -0.00018353378 0.00013362465
-8.8936686e-05 -0.00021259052 -0.00011173447 3.2475604e-05 0.00011300996 -0.00011585187 6.2829306e-05 -0.00021762957
0.00020153384 3.803013e-05 9.9256504e-05 -1.5025064e-05 0.00016809057 8.721641e-05 -0.00011816431 -6.278521e-05
-8.880302e-05 -0.00011866334 0.000112645925 6.8849354e-06 4.2701333e-05 9.1572816e-05 -0.00015773978 -4.6006724e-05
-0.00543628 -0.00913044 0.0070076482 -0.0060367035 -0.009468797 -0.0061447914 -0.0042925635 -0.000114632145
-0.004514911 -0.0095447 -0.009247736 0.0025506036 0.002251415 0.007059619 0.012237966 0.011036945
0.008550247 0.011527323 -0.015177997 -0.006388446 0.004220533 -0.00012385118 -0.006452923 0.0019123848
-0.00927454 0.009209722 -0.01200112 0.011631472 -0.007057984 -0.0025391658 -0.0065419953 0.0023619134
0.0074244128 -0.014029769 -0.015940892 0.0044534192 -0.011970593 -0.008525634 0.0069264625 -0.00767831
0.004668432 -0.003489017 0.0037534616 0.0050069545 -0.00036376127 0.004556514 0.0072142184 -0.002975448
-0.0012414828 -0.00920983 -0.012395026 -0.0068427557 -0.008210735 -0.003802941 -0.003067604 -0.0062578665
-0.010851075 -0.004478239 0.0020271514 0.006878243 0.0059208474 -0.0029292256 0.011731892 -0.009457126

transformer_encoder.layers.0.self_attn.out_proj.weight f4 [64, 64]
00000000: e3af 0f3d b552 a63d cd6f 8fbc c916 b93d
00000010: 5678 0c3d 41ba 36bd 50de 9cbc 25a5 0cbd
00000020: c771 ce3d a393 1bbd 4e04 88bd 4147 b13d
00000030: 5a39 f1bd f5f9 f3bd cc4b cdbd 85b9 7d3c
00000040: e988 7ebd c42b 92bc f671 abb9 074f dc3c
00000050: 7feb f33c 61b8 b33d 7920 8e3d 2d4a 6d3d
00000060: b9dd d43d fa28 cb3a 3849 6e3d b533 103c
00000070: ae29 90bc 1aa9 643d b1b4 f73c f160 9fbc
00000080: d193 f83b a309 37bc 549f 8fbd 19ec c1bc
00000090: 75ee e43d f1ac 183d 1def f23c 04de 57ba
000000a0: 2b08 bb3d 3b24 5fbd f8a5 bbbd 38f5 acbd
000000b0: 0777 ab3d f6ad 503d 917c 22bd ca72 4dbd
000000c0: 7604 fc3d 2d9c 893d 8a18 b4bd 6200 9d3d
000000d0: 0e95 b53d eb0a ad3d aa29 aebd c65e 0b3c
000000e0: 1aab 643d 9547 983d 0c62 a6bd 4419 ccbd
000000f0: 9b2c 473d eb98 1c3d efea 093e 9a0d acbb
00000100: 90c2 7e3c 3949 6b3d ffbc e4bd 01d8 f23d
00000110: a613 cfbd 92c6 b33d 645f 19bd 76d5 dc3d
00000120: 4856 8bbd 453d a4bd f26e ee3d f4e4 01be
00000130: c069 e8bc 882b a7bd 9227 1f3d 5777 5dbc
00000140: 5d42 cdbc b550 d5bd b5bf ccbd c480 14be
00000150: 8df9 cb3d 2d31 4e3d 794c 0fbe 6661 333d
00000160: 0c56 81bd f84c bdbd 9245 a43c a5e6 58bc
00000170: 39f7 a0bd 0778 943d f37b c63c 45c4 a9bc
00000180: 31df 8e3c 7beb 7a3d 1022 833c d1f8 023e
00000190: 8dc4 443c 460f 533c fc4c 713d 17ed 903d
000001a0: 06f8 d7bd 436c e3bd e555 91bc fe74 fa3d
000001b0: 7bfc 653c 8244 863d 122b e5bd 030b b73d
000001c0: fc5f 623d a6c8 7b3c c3f2 903c 0154 ec3d
000001d0: 7982 98bd c341 cd3d 97d3 9ebd 7f75 943d
000001e0: 76ab 603d d0cc 503d 4715 c93d 37e0 fb3d
000001f0: b448 b5bd cbc6 963d d2b1 8b3d a0ee 89bc
00000200: a583 d3bd 56fe c4bd 4195 063d e3af c1bd
00000210: 3b6f db3d 2a1f ed3c b3d1 df3c 2b5c 123d
00000220: 3528 9dbd b891 5bbd ac83 583d 0921 f93b
00000230: fa80 f2bc 5783 c43d fc9b 6abd 6e82 55bd
00000240: 3efa 2bbd 89d7 f139 85f9 e6bd dbd6 1fbd
00000250: e480 debd 1436 2cbd 1434 b6bd d139 50bd
00000260: 601d 233c 268b 733d 881b b03c b333 373d
00000270: 2d70 c7bd 1d70 d63d 5af1 d03d 2dcb 383d
00000280: d723 003e 0295 eebc 2f28 c73d b0c8 b73d
00000290: ddf8 303d d43c da3d 7e01 d53d 4a3d 223d
000002a0: f8b0 73bd 1f8c 603d 45f8 c93d f418 cb3d
000002b0: 543d fb3b 93ec 023e 7385 973d 19b7 5c3d
000002c0: 088c 9e3d cf33 d3bc 26c9 3abd e563 1e3d
000002d0: 2346 aa3d 19b3 d23d d532 d3ba db32 92bd
000002e0: 5067 b83d a5da a23d bc2d 213c ba9c cebd
000002f0: b8af 503d 04e4 d03d f0ea 9abd 0f10 933d
00000300: ead9 aebc 78ad 7dbb a125 90bd 1765 f9bc
00000310: 0838 993d b139 dfbd 35ee e5bd 6f6c 9abd
00000320: cfd4 173d 2cd3 bf3c 2985 04bd ca4e d3bd
00000330: 42f5 1f3c 324a f4bc a204 e93d 17f0 233c
00000340: 32c9 dc3c ca72 e3bd 9acd 0bbe c2ea e7bd
00000350: 49c2 63bb e42f e2bd e207 743d 4232 6cbc
00000360: 8711 d6bd 65ce 5abd 82bf bf3d a216 82bd
00000370: 2f25 933d 1cbd 62bd c14e 91bd 6db4 913b
00000380: 5983 343d 68bf d7bd fa8b 55bd a20a 14bd
00000390: b543 abbd b671 c4bd 0b5e 11bd 5974 83bb
000003a0: 5a9f 9fbc 303c b7bc 7781 bdbd c39d bc3d
000003b0: 25b9 85bc 2ba9 01be 1d52 fc3d 4417 b23d
000003c0: 9502 a83d 1f50 423b 919e b0bc bf11 683d
000003d0: 15f5 93bb 96f3 bcba 6e0b 02bd 352b 9c3c
000003e0: 61a3 01bd ee5d 3e3d a145 713d b730 7c3c
000003f0: fc99 523d b2be eb3d e536 c6bd cfa2 01be
0.035079848 0.08121244 -0.017509365 0.09037549 0.03429445 -0.04461122 -0.019148976 -0.03433718
0.10080295 -0.037982594 -0.06641446 0.08656169 -0.11778517 -0.1191291 -0.10024223 0.015486126
-0.062142286 -0.017843135 -0.0003270057 0.026893152 0.02977538 0.08775402 0.069397874 0.057932068
0.10393853 0.0015499883 0.058175296 0.00880139 -0.017598 0.05582533 0.030237528 -0.019455405
0.0075859805 -0.011171731 -0.07012811 -0.02367215 0.111782946 0.037274305 0.029655034 -0.0008234682
0.09132417 -0.05447791 -0.091625154 -0.08445209 0.08372312 0.050947152 -0.039669577 -0.0501583
0.12305538 0.06719241 -0.08793743 0.07666089 0.088663206 0.08449348 -0.085040405 0.0085064825
0.055827238 0.07435528 -0.0812417 -0.099657565 0.048626523 0.03823177 0.13468526 -0.005250645
0.015549317 0.057442877 -0.11168861 0.11857606 -0.101111695 0.08778109 -0.037444487 0.10782902
-0.06803566 -0.08019499 0.11642255 -0.12684995 -0.028370738 -0.081626 0.038856097 -0.013517222
-0.025056059 -0.10415784 -0.09997503 -0.14502245 0.099597074 0.050339866 -0.13994016 0.04379406
-0.0631524 -0.09243196 0.020052705 -0.013238584 -0.07859654 0.07249456 0.024229025 -0.020723471
0.01744041 0.061259728 0.016007453 0.12790228 0.012009752 0.012882059 0.05891131 0.07076471
-0.105453536 -0.11104634 -0.017741153 0.12229346 0.014037247 0.065560356 -0.11189856 0.08937647
0.05526732 0.0153676625 0.017693883 0.1153946 -0.07446761 0.10022309 -0.07755201 0.07248973
0.054851018 0.050976574 0.098185115 0.12298625 -0.08851758 0.073621355 0.06821026 -0.016837418
-0.103278436 -0.09618823 0.032857183 -0.09457376 0.10714575 0.028945524 0.027321672 0.03573243
-0.076736845 -0.053605765 0.052859947 0.007602815 -0.029602516 0.095953636 -0.057277665 -0.05212634
-0.041986696 0.00046127688 -0.11278061 -0.03902326 -0.10864428 -0.04204376 -0.08896652 -0.050836388
0.009955734 0.059458874 0.021497503 0.04472704 -0.09738193 0.10470603 0.10202284 0.04511564
0.12513672 -0.029123787 0.09724461 0.08973825 0.043206085 0.10656133 0.10400675 0.03960923
-0.059494942 0.05482113 0.09861807 0.09916869 0.007667223 0.12785558 0.073985 0.053885553
0.077415526 -0.02578154 -0.045601986 0.038669486 0.08314159 0.102880664 -0.0016113172 -0.07138606
0.0900408 0.079518594 0.009837564 -0.10088487 0.05094883 0.101997405 -0.07564342 0.07180797
-0.021344144 -0.0038708132 -0.07038427 -0.030443711 0.0748139 -0.10899676 -0.11227075 -0.07540213
0.037068184 0.023416124 -0.032353554 -0.10317762 0.009763064 -0.029820535 0.11377837 0.010005972
0.026951406 -0.11105879 -0.1365265 -0.113240734 -0.0034753254 -0.11044291 0.05957783 -0.014416279
-0.10452562 -0.05341949 0.09362699 -0.06351973 0.071848266 -0.05535613 -0.07095099 0.0044465573
0.044070575 -0.10534555 -0.052135445 -0.036142953 -0.083625235 -0.09592001 -0.035490077 -0.0040116725
-0.019485164 -0.022367567 -0.09253209 0.09209778 -0.016323635 -0.12662189 0.12320349 0.08695844
0.082036175 0.0029649807 -0.021559985 0.05665755 -0.0045153 -0.0014415856 -0.03174918 0.019063571
-0.03164995 0.046476297 0.058904294 0.015392474 0.051416382 0.115109816 -0.09678439 -0.12659763

transformer_encoder.layers.0.self_attn.out_proj.bias f4 [64]
00000000: 7e5b e8ba 0489 bcbb 03b8 0e3c abdd 88bb
00000010: 13cc 58bc 3c37 06bc ee9c 083c 6cf9 d43b
00000020: 0406 0abc 8079 1f3c d83b 963b 4e34 72bc
00000030: 01db f5bb fd3d 113c 8d29 c0bb 964a cb3b
00000040: bf2a ecbb 308a 4e3b 1d27 823b 9f78 e53b
00000050: a028 bdbb 0d65 a03b 0fb8 13bc a761 06bc
00000060: 8760 73bc 28b1 143c 0a02 11bc a1f6 443c
00000070: ec74 83bc 3338 a9bb 7d4b 07bc 1f20 3b3c
00000080: 7398 2bbc 7ee8 143b a359 27bb fb29 27bc
00000090: 860e b5bb c99f 30bc bcfe 2c3c 4d2b dabb
000000a0: fa89 d33b 9293 1abc e72d 023c 5a56 05bc
000000b0: 0a0e 07bc 2874 253c 0650 6e3b 0bad e2bb
000000c0: bd65 6a3c 4ac9 3e3c 7923 dd3b ffbf 4abb
000000d0: e0e2 15bc 3c04 473c 5009 273c 6e1d 33bc
000000e0: e9d7 243c 1044 1d3b d3a7 3cbc 918f 3f3c
000000f0: 7cb5 9bbb 3385 b33b cb56 7d3c 43bf 213c
-0.0017727462 -0.005753638 0.008710864 -0.0041768155 -0.013232249 -0.00819188 0.008338196 0.00649946
-0.008424286 0.009733558 0.0045847706 -0.014782978 -0.007502914 0.008864877 -0.0058643282 0.0062039597
-0.007207244 0.0031515472 0.003971948 0.0070029045 -0.005772665 0.0048948587 -0.009016051 -0.008201993
-0.014854557 0.0090754405 -0.008850584 0.012021692 -0.016046964 -0.00516417 -0.008257744 0.0114212325
-0.010473358 0.0022721584 -0.0025535605 -0.01020288 -0.005525413 -0.010780283 0.01055878 -0.006657994
0.006455657 -0.009434598 0.007945514 -0.008138264 -0.008243093 0.010098495 0.0036363616 -0.006917601
0.014306483 0.011644671 0.0067486134 -0.0030937192 -0.0091483295 0.012147006 0.010195091 -0.01093231
0.010061243 0.0023996867 -0.011514622 0.011691944 -0.004751859 0.005478525 0.015462588 0.0098722605

transformer_encoder.layers.0.linear1.weight f4 [128, 64]
00000000: 5388 1fbd 35e1 6cbd 9cec bebd c9c8 dabd
00000010: f136 e0bd 650d 53bc 07ca 17bd 5af9 d9bc
00000020: 3abb 9cbd beb4 b9bb 31ac 09be 9e6c 6abd
00000030: 6f0d 30bd a7f7 fbbb 3f52 abbd 23cb 823b
00000040: f65a 8b3d c36e 06be 7ee4 4d3d f292 28bd
00000050: 6ad1 0f3d a9e5 b2bd bdc6 4c3d 42df a8bd
00000060: bd35 c03d 9e25 15bc 7c41 b43c 8eb2 013d
00000070: 837a 55bd 9566 5bbc b6cf 873d f186 50bd
00000080: 096d da3d ae8d 82bc 13db fabc 338a fab9
00000090: ff6e cd3d ac3e 99bd fcc0 8039 45f6 663d
000000a0: 4eea 4f3d 13a0 8f3c 49ac 883d 3745 a4bd
000000b0: fc1c 153c ee36 eb3d a010 843d db4b 29bb
000000c0: e9e7 c23d a1a6 81bd 3997 e53d e9fb 95bc
000000d0: 7f8a 97bb 6c04 babd 8104 9bbc 606b f83b
000000e0: 1ca9 a2bd 67eb eb3d 1873 963d 5dc3 46bc
000000f0: 1ec8 48bd 323d 8fbd 0705 9dbc 0747 d83d
00000100: 61a7 92bc f464 a23d ff64 bdbd bd06 653d
00000110: 6f4f d3bd e81b b8bd 7ee7 d8bb efdb 42bc
00000120: c444 de3d cf9a 033e c6d5 b9bd 185e 863d
00000130: 6fc2 ae3d eafd ef3d 1260 8c3d 1631 9f3d
00000140: 914a c93d 9606 c73d 5320 ff3d 3910 b13d
00000150: 7f00 99bd 1002 c6bd da95 cd3d 08f9 513d
00000160: 46c9 11bd dc51 26bd 433a 6cbc 225f d43d
00000170: d776 6bbc c1c5 a9bd a1ab 4ebd 916d 583d
00000180: fc59 a83d 07d6 cebd 9b8e 973d f532 d2bd
00000190: 1b43 9bbd 468e 303d ca0b a13c 4137 aebd
000001a0: 1a19 a83d 9d47 86bd 82a3 00bc 6a4b fc3d
000001b0: 16d8 e03d 4510 93bb a030 49bd 6937 103d
000001c0: 9b02 cebd dfb0 c03d 0d24 37bd 9fa3 043e
000001d0: bc03 b73d 9c50 f3bd f8a9 34bc 56ed b83c
000001e0: 8095 e43b 19ee d7bc 8816 d5bc 33d3 c03c
000001f0: 53ca e83d 4e14 d7bd 55b7 053e 5fbc e83d
00000200: a4a0 663d 9bb1 f0bd dc9a 023b 13be 9d3d
00000210: 2d96 b7bc a0df b3bd f895 b53d 2840 02be
00000220: f01e c2bd 45eb 093c c966 7c3b ad62 873d
00000230: 0d43 9d3d 0cfd 25bd 691d 473d 18ae d33d
00000240: 037b 4e3d 0628 f13b 062b 3b3d 3102 113e
00000250: 83fa 173d b9a9 c2bc c87e a23d b92a a13d
00000260: 140a ba3d c69f 92bd d0ce c1bb 4d75 eabd
00000270: ed64 8a3d 18bd 80bd 072c b63d 6c8e 183d
00000280: ef73 c8bd a102 e13d e319 193d 6fdd 7dbd
00000290: c479 dfbd 57bc b43d 2f1a 583d 134b 85bc
000002a0: de1d f8bd d290 d0bd 5fb0 263d 5f14 cbbd
000002b0: 7591 a6bb a268 36bd eb06 273d 4c2d 9abd
000002c0: 89c8 5a3d 98c5 05be cea3 c4bd 2ded 78bb
000002d0: 65d8 b23d 5b58 a03d be6b 52bc 974a f23b
000002e0: 898f 03be 0e3b c03d d5d4 f5bd 5f20 45bd
000002f0: 79df 283d 8123 bfbd af05 7cbd b052 a63d
00000300: 73f1 a1bc b277 1fbd c5ad ef3d 0dd5 093e
00000310: bec9 9ebd ef19 043e ccd7 443a 0c2c 0a3e
00000320: 7dc1 90bb ebf9 eebb a7b5 16bd 6278 073d
00000330: 6291 bcbd 7029 cb3c dab6 6fbd a58e 34bd
00000340: 7dd8 35bd 80f6 4cbd 66ab 173e 8b46 023c
00000350: 00fb b63d e173 c13d 55e9 93bd b8c0 133c
00000360: 22b0 c83d a1a0 14bd ec19 073e 5981 c33d
00000370: efdc 9a3d 8a09 203d 04a0 b5bd ab3b 9b3d
00000380: 958f 913d 38f6 173c 557b 2eba 2aa9 4cbd
00000390: 2de3 083d 6bea 84bd 9043 efbd 84b6 eb3d
000003a0: 1b91 8f3d f19c 903d 92d1 99bd 4658 12be
000003b0: ca14 c33d 1aba 42bd 6661 6bbd 8260 9f3d
000003c0: 13ae 143e 6e53 0abe a62a 8c3d 556c 843c
000003d0: 68aa b33c dc76 a83d bb65 3dbd 4a76 ca3d
000003e0: 02ee 813d 45d9 61bd 1433 783d f2d7 b3bd
000003f0: 0660 5e3c 91e8 4b3c 6825 5bbd 8b24 8ebc
-0.03894837 -0.05783196 -0.093224734 -0.10682828 -0.10947979 -0.0128816115 -0.037057903 -0.026608158
-0.07652898 -0.005667298 -0.13444592 -0.05723249 -0.04298156 -0.0076894346 -0.083652966 0.003991501
0.06804459 -0.1312819 0.050266735 -0.041155763 0.035111822 -0.087352104 0.04999422 -0.08245708
0.0938525 -0.009103207 0.022003882 0.031664424 -0.05211879 -0.013391157 0.066314146 -0.05090994
0.10665328 -0.015936699 -0.03062204 -0.00047786682 0.100309364 -0.07482657 0.00024557847 0.056387205
0.05076056 0.017532384 0.06673486 -0.08021014 0.009101149 0.114850864 0.064484835 -0.0025832567
0.095168896 -0.0633061 0.11210484 -0.018308597 -0.0046246643 -0.09082875 -0.018923046 0.0075811595
-0.07942411 0.11519509 0.07346171 -0.012131539 -0.04901897 -0.06994094 -0.019167436 0.105604224
-0.017902078 0.079294115 -0.09247779 0.05591463 -0.10317885 -0.08989698 -0.006619393 -0.011893257
0.1085296 0.12852024 -0.09073977 0.06560916 0.08533179 0.11718352 0.068542615 0.07773034
0.098286755 0.09718053 0.12457337 0.08645672 -0.07470798 -0.09668362 0.100383475 0.051262885
-0.03559234 -0.04060541 -0.014418188 0.10369708 -0.014371595 -0.08289672 -0.050456647 0.052838866
0.08220288 -0.10099416 0.07400247 -0.102636255 -0.07581159 0.043104433 0.019658942 -0.085066326
0.08207913 -0.06556628 -0.007851483 0.123190716 0.10978715 -0.0044880235 -0.049118638 0.035209093
-0.10059091 0.094087355 -0.044712115 0.12953041 0.08936259 -0.118806094 -0.011026852 0.022574108
0.0069758296 -0.026358651 -0.02601172 0.023538208 0.11366715 -0.1050192 0.13058217 0.11364054
0.056305543 -0.117526256 0.001992873 0.077022694 -0.022410477 -0.087828875 0.08866495 -0.12719786
-0.09478557 0.008417909 0.0038513413 0.06610618 0.076788045 -0.040524527 0.048612032 0.1033594
0.050410282 0.0073595075 0.045695327 0.14160992 0.03710414 -0.02376257 0.07934338 0.07869477
0.090839535 -0.071593806 -0.0059145465 -0.114481546 0.06757531 -0.06286067 0.08895116 0.0372452
-0.097877376 0.109868295 0.037378203 -0.061978754 -0.10911897 0.088249855 0.052759346 -0.01627115
-0.12115072 -0.10183872 0.040695544 -0.09915995 -0.005083258 -0.04453338 0.040778082 -0.07528171
0.0534139 -0.13063657 -0.09601556 -0.0037983165 0.0873268 0.078293525 -0.012843071 0.0073941457
-0.12847723 0.09386264 -0.12003485 -0.048126575 0.041228745 -0.09332944 -0.061528858 0.0812124
-0.019768452 -0.03893251 0.11703066 0.13460179 -0.07753323 0.12900518 0.0007508963 0.13493365
-0.004417597 -0.007292976 -0.03679433 0.03307379 -0.09207417 0.024800032 -0.05852399 -0.04408135
-0.044395912 -0.05003977 0.14811477 0.007951389 0.08934593 0.0944593 -0.07222239 0.009018116
0.0979922 -0.036286 0.13193482 0.095461555 0.07561671 0.039071597 -0.08868411 0.0757974
0.07107464 0.009275012 -0.0006655951 -0.049966015 0.033419777 -0.06490024 -0.116828084 0.115094215
0.070100985 0.07061184 -0.075106755 -0.14291486 0.095254496 -0.04754076 -0.057465933 0.07782079
0.14519529 -0.13508388 0.06844072 0.016164938 0.021931842 0.082257956 -0.046239596 0.09885843
0.063442245 -0.055138845 0.060595587 -0.08781423 0.013572698 0.012445585 -0.05350247 -0.01735141

transformer_encoder.layers.0.linear1.bias f4 [128]
00000000: a640 983c cf79 b9bd 57de 7f3d 2ded b13d
00000010: 344b e6bd 7314 95bc ab45 81bb b6c7 ccbd
00000020: c84c e3bd d115 693a 2a05 8abd 61c7 653c
00000030: 22fb af3d e020 4abd 6a8c e53d b32c af3d
00000040: 8508 47bd 9cdb 02bd b47c ea3d 1169 ab3d
00000050: 9b6e 6dbb e997 5cbd 57df 033d d663 a9bd
00000060: 849f ecbd 7ebb f43b 7f76 8cba 08c8 413d
00000070: 991d a5bb 0785 033d 3957 893d c2a7 47bd
00000080: 89e2 84bd 0a0f f03d 3e1d 2ebd b88f 823b
00000090: b522 4d3d c42c c03d 6bee 3f3c 3400 8abd
000000a0: 3b15 f43c 1fad 98bc dd2f 4dbd f827 3d3d
000000b0: 639e c43d 62ae eb3c 7cc9 4a3d b027 3e3d
000000c0: cae8 4fbd 3a5b 7a3d 3dd8 983d eedd d9bc
000000d0: 0e52 3e3d ecd0 8c3c 4def dcbd d688 843d
000000e0: 8305 dbbd d54e 823c e2f3 e8bd 13fa e93d
000000f0: bf04 66bd 67b7 eebd 284b 95bd 94e3 c3bd
00000100: 1d72 d5bd 1138 8bbd dd20 2abd 89a5 ec3c
00000110: d28d f8bc 2efe 51bd b175 1c3d f26f 9fbd
00000120: 7ee3 4ebc 3a5b 1d3d 9523 c53d f418 f03d
00000130: 564d 75bd c741 ff3c ec32 cb3c 7d14 03be
00000140: 5bf5 473c a9ea 7bbc 2b45 863d f07d d2bc
00000150: 5a14 bdbd df14 c2bd ce0a c83d 75d0 a6bd
00000160: dd01 a43c 7344 76bc 5347 15bd 962b 85bd
00000170: 1ca1 cc3d 6df0 68bd a2a3 a2bc 2460 8fbd
00000180: 8907 573d 340d e1bc 11e7 85bd 16ce ae3d
00000190: b60d aabd b4d2 cf3d e609 a9bd ffb1 6abd
000001a0: 6c88 5bbd c1ff 6e3c fa9f 0e3e 5404 12bd
000001b0: 55ff 843d f243 85bd b06a 9cbc 3de2 d43d
000001c0: fd1f 473c 32a3 a0bc fae9 e6bd b1a0 413d
000001d0: cea3 903d a5e3 443c ed62 81bd c8ae 1bbd
000001e0: 5a45 30bd 199a 623d 67ca b53d c23c 95bd
000001f0: 52b3 93bd ce83 01bc 25cb 82bd 92ed f0bd
0.018585514 -0.09056436 0.0624679 0.08687816 -0.112448126 -0.018198228 -0.0039450726 -0.09999029
-0.11098629 0.00088914955 -0.06739266 0.014024586 0.08592822 -0.04934776 0.112084225 0.085534476
-0.04859211 -0.031947717 0.114495665 0.08369649 -0.0036229256 -0.05385581 0.032195415 -0.08270995
-0.11553863 0.00746864 -0.0010716467 0.047309905 -0.0050389287 0.032109287 0.067060895 -0.04874397
-0.06488521 0.117216185 -0.042508356 0.0039844178 0.050081927 0.09383538 0.011714558 -0.0673832
0.02979528 -0.018637238 -0.050094474 0.046180695 0.09600522 0.028769676 0.049508557 0.046424568
-0.050759114 0.061122157 0.07463119 -0.026595082 0.046464972 0.017189465 -0.107878305 0.06471412
-0.10694411 0.01590673 -0.11374642 0.11424651 -0.05615687 -0.11656075 -0.072897255 -0.095648915
-0.10422156 -0.06797803 -0.041535247 0.028887527 -0.030341063 -0.051267795 0.038198177 -0.07785024
-0.012627481 0.03841708 0.09625927 0.117235094 -0.059888206 0.031159295 0.024804555 -0.12800784
0.012204493 -0.015375772 0.065561615 -0.025694817 -0.092323974 -0.09476637 0.09767686 -0.08145229
0.02002042 -0.015030968 -0.036444973 -0.06502454 0.09991667 -0.056869913 -0.019853417 -0.07000759
0.05249742 -0.027472116 -0.06538213 0.085354015 -0.083033964 0.1014761 -0.08253841 -0.057298657
-0.0535969 0.014587344 0.13928214 -0.03564866 0.06494013 -0.065071 -0.019093841 0.10394714
0.012153623 -0.019609068 -0.11275096 0.047272388 0.07062493 0.012017165 -0.06317697 -0.03800848
-0.04303489 0.05532274 0.08876496 -0.07286979 -0.07211937 -0.00790496 -0.06386403 -0.11764063

transformer_encoder.layers.0.linear2.weight f4 [64, 128]
00000000: 0423 e73c 20b2 0cbd abd6 93bb 2892 953d
00000010: 7e5d 3a3d 2701 bf3b c822 fb3c 6c1e 75bd
00000020: 28be 1c3c f082 e4bc cf2e c8bd 6845 4b3d
00000030: 8862 cfbd 771c f53c 0f31 483d ae96 a43c
00000040: 93e6 b2bb f91a 90bd 78ae 5e3c fe42 8c3c
00000050: 0f96 67bd 37fc 743d 22d6 78bc a70a 9bbd
00000060: dd36 a03d 4c45 bbbd c319 acbd 554d d23c
00000070: 99c3 d03d 08db 9b3d 82a4 083e f779 e7bc
00000080: 8876 81bd 386e 133d 3c8d e63a 9494 a83d
00000090: 3646 07bd 2a3e c63d d888 00bd f944 d13c
000000a0: d4ed e13d b1c3 b6bd 553a e93c 6438 4539
000000b0: a887 943d 0048 c1bd e0d1 09bd d64d 4bbd
000000c0: 6cd9 903c 29b8 013b b7e5 9cbb 814b 043d
000000d0: d74a 24bd df1b 233d 40fb d63c 79d9 a6bd
000000e0: d582 7dbd 5192 c43d 4025 e7bb ae10 843d
000000f0: 3358 fa3c 4222 42bd 3927 9dbc eb12 5f3d
00000100: 9bce 833d 88be c53d 3555 a7bd 7236 e13c
00000110: 1321 e3bc 3a24 b73d 8b87 4a3b 606a 13bd
00000120: b67c c6bc 6596 863c d2dd a5bd 36b9 be3d
00000130: 3174 84bd d0fa 75bb 2f36 183c b712 c5bc
00000140: 2be2 0f3d 6798 9e3d 8315 91bb 1b2e 45bd
00000150: 2caf 153d 14d5 79bd 77d5 f0bc a6a2 1fbb
00000160: 84a3 62bd 7390 0b3d e6a6 c23d dcfa 38bd
00000170: 495b e83c eb22 123c aa98 343d db78 e3bc
00000180: 6b7f b1ba 6f37 b63a 196f 353d 267a 373c
00000190: 61b2 783d 97d2 173d 2b56 93bd 0e6b 7dbd
000001a0: 8143 893d 0478 963d f3b8 303d fc83 febc
000001b0: 0fe7 1dbc 6b45 863c a5f2 d1bc 7c22 863d
000001c0: 68c7 0bbd 77ec 273d 5363 de3d a108 363d
000001d0: 23a0 713c ea2c 983d ce0c 813d 58db 44bc
000001e0: 1620 303b 63f4 ff3c 4e77 813d c4d1 de3c
000001f0: 8804 523c a266 52bc 2291 a53d 8df4 0fbd
00000200: 587a 8abd 19d4 9f3d cea4 953c e385 a9bd
00000210: a200 183d f842 913d 8cf9 093d b8aa 593c
00000220: b8c8 6cbd de79 623c a434 5d3d 38c1 933d
00000230: 4471 9abd e525 763d 30d8 bb3d 539f a1bd
00000240: c372 b13d d14c 97bb ebce bb3d f014 adbd
00000250: 28d4 a13c 292b 3d3d 9eca 7abd f2ff 5d3d
00000260: b272 353d ce73 e13c a221 51bd 4724 663d
00000270: e8a3 01bd 761a 06bb 8517 02bd 0282 52bd
00000280: ace3 c4bd 5b98 4dbc c71a dc3d 51f2 0dbd
00000290: f5b9 e73c 95ac f93a 8dd3 5c3d c356 6cbd
000002a0: 496d 45bd 80d5 923c 93d9 6d3d dac1 4cbd
000002b0: 30b4 4a3d 65cc de3d f473 0bbd f316 2cbc
000002c0: 18ad debc 6dd5 863b 009d 923d b4cb 223d
000002d0: b869 3dbd c3e5 c0bc 98d5 ed3d b1c1 cdbc
000002e0: fe43 95bd 9541 c339 94a6 9abc c18d 033d
000002f0: 7d3d a1bd 5efb 623d b8c3 a53d 476e e43c
00000300: 9f8e 34bd 58ae 13bd 3b1a 163d e399 abbc
00000310: aff6 d53b 2e59 8f3b 367d 93bd 029a 933d
00000320: 4f37 5abd 5736 863d e570 cfbd 916c 8c3d
00000330: c38a 833d 0ae2 ce3c 922f a5bd eef8 01bd
00000340: a4bc e1bc b26e 833c b5af 753d da3a e0bd
00000350: a05b efbc 546f 7abd b8b2 37bb 951e 3cbd
00000360: aef5 313d 68a2 05bd 0c8b 153b 6f87 e13b
00000370: 93b9 51bd bd74 37bd fc6b 2dbd e7c2 b63d
00000380: 52e0 e83c 2347 c3bb 4a80 6e3c e3ee b1bd
00000390: f9b4 ae3c 6468 0fbd a820 f63c 76b5 cebb
000003a0: 3412 22bd ee6e 083c 46aa 643d 3273 59bd
000003b0: 08fc 693c ee9c 91bc 18dc 88bd b007 c4bd
000003c0: ea83 c6bc edf7 9a3d 7cbe bbbc 32bf 95bd
000003d0: 9c83 183d 9e34 093d beb2 8fbc 0a65 d0bc
000003e0: e3fe 14bc 41e1 f6bd 9ebd f2bb 995d 96bd
000003f0: c8bd ee3c a3ad a83d 590b bdbd 6bd7 5c3c
0.028214939 -0.03434956 -0.0045116744 0.07303268 0.045499317 0.005828995 0.030656233 -0.059843466
0.009566821 -0.027894467 -0.09774553 0.049626738 -0.10126215 0.0299208 0.04887491 0.02009138
-0.0054596155 -0.070363946 0.013591401 0.017121788 -0.05653959 0.059810843 -0.015187772 -0.07570391
0.07822964 -0.09144077 -0.08403351 0.02567164 0.10193557 0.07610136 0.13344005 -0.0282564
-0.06321436 0.035993785 0.0017589699 0.08231464 -0.033025943 0.096798256 -0.031380504 0.025545584
0.1103169 -0.08924044 0.028470198 0.00018808391 0.07252437 -0.09437561 -0.033647418 -0.049634777
0.0176818 0.0019793606 -0.0047881263 0.03229857 -0.040110435 0.0398215 0.026242852 -0.08146948
-0.06189235 0.0959822 -0.007054001 0.06448494 0.030559635 -0.047395952 -0.019183742 0.0544614
0.06435891 0.096554816 -0.08170549 0.027491782 -0.027725732 0.089424565 0.0030903544 -0.03599012
-0.024229389 0.016429136 -0.080989495 0.0931267 -0.06467474 -0.003753353 0.009290262 -0.024056775
0.0351278 0.07743912 -0.004427613 -0.048139673 0.03654401 -0.060994223 -0.029398663 -0.002435842
-0.055331722 0.034073304 0.095044896 -0.045161113 0.02836384 0.008919458 0.044090904 -0.02776759
-0.0013542002 0.0013902019 0.044295404 0.011198556 0.06071699 0.03706607 -0.071941696 -0.061869673
0.067023285 0.0734711 0.04314513 -0.031068794 -0.009637608 0.016390523 -0.025628397 0.06549546
-0.034125715 0.040996995 0.10858788 0.044441823 0.014747652 0.07430442 0.063012704 -0.012015186
0.0026874593 0.031244462 0.06321584 0.027199633 0.012818463 -0.012841852 0.080843225 -0.03514533
-0.067616165 0.07804126 0.018267062 -0.0827749 0.03710998 0.070928514 0.033685252 0.013285331
-0.057808608 0.013823001 0.05400528 0.07214588 -0.07541135 0.060094733 0.09172094 -0.07891717
0.08664467 -0.0046173115 0.09170326 -0.08451259 0.019754484 0.04618374 -0.061228387 0.054199167
0.044298835 0.02752104 -0.051057465 0.05618694 -0.031650454 -0.002046255 -0.03176071 -0.051393516
-0.096137375 -0.012548531 0.10747295 -0.03465492 0.028286913 0.0019048626 0.053912688 -0.05769993
-0.048199926 0.01792407 0.058068823 -0.04998956 0.049488246 0.10878829 -0.03404613 -0.010503518
-0.027182147 0.004114798 0.071588516 0.039745048 -0.0462434 -0.023547059 0.116130054 -0.025116773
-0.07288359 0.0003724216 -0.018878259 0.03211761 -0.07873056 0.055415504 0.08093971 0.027884616
-0.044081327 -0.03605494 0.03664611 -0.020947402 0.006529651 0.0043746447 -0.072016165 0.07207109
-0.053275403 0.06553333 -0.10128955 0.06856645 0.06422951 0.025254268 -0.08065714 -0.03173154
-0.027555771 0.016043995 0.05998202 -0.10948725 -0.029218495 -0.061141327 -0.0028030109 -0.045927603
0.04344719 -0.032625586 0.0022818474 0.0068826 -0.051202368 -0.044789065 -0.04233931 0.089238934
0.028427277 -0.005959408 0.014556954 -0.08688142 0.021326529 -0.035011664 0.030044869 -0.006308253
-0.03956814 0.008327229 0.055826448 -0.053088374 0.01428128 -0.017775025 -0.066826046 -0.09571779
-0.024232823 0.07566819 -0.022917978 -0.07311858 0.037234887 0.033497445 -0.017541286 -0.025438804
-0.009093973 -0.120546825 -0.007407858 -0.07342071 0.02914323 0.082362436 -0.0923068 0.013479094

transformer_encoder.layers.0.linear2.bias f4 [64]
00000000: 9b4d e6bc 7412 6abd 056f 14bc 1ce6 0cba
00000010: 7968 513d b4e2 3e3d 1351 5bbd 73b3 2dbd
00000020: 15bb de3c b5c2 bc3d c72e b6bc 3ab2 333d
00000030: 640b 69bd 44f8 b33d feb9 f1bc d52c 2e3d
00000040: 55bf 1bbc 14a9 743d 6630 553d 3995 65bd
00000050: a636 0fbc b136 8abd 6b94 2f3d b124 b23d
00000060: 547b 95bd 3087 8fbd 3f04 b5bb 6901 34bc
00000070: 7392 b2bc 9233 bdbc 9ed2 5a3c fffc 19bc
00000080: e43d ecbc 2906 8abc a15b c4bb 6200 2abd
00000090: 75f2 9abd d97b 49bd a6a1 3a3c 5d15 933d
000000a0: 78df 63bd b750 923c 4063 823d be50 e7bb
000000b0: 9917 7abc 10ad 87bc 943a 173d 9e6f 64bd
000000c0: c116 983c 13c5 ee3a b8dd ac3d fbd8 6cbc
000000d0: c605 a1bd 40f8 d7bc e2ab 36bd 63eb 2a3d
000000e0: 1655 723d 011d e0bb a488 9eba 6c6c 22bd
000000f0: d77a 66bd 4890 653d 1677 c53d 6a3c 763d
-0.028113177 -0.057146505 -0.009059672 -0.0005374865 0.051125024 0.04660292 -0.053544115 -0.042407464
0.027188817 0.09216825 -0.022239102 0.043871142 -0.05689563 0.08787587 -0.029507633 0.042523224
-0.009506066 0.059731558 0.05204811 -0.056050513 -0.008741057 -0.06748713 0.04286615 0.086984046
-0.072989136 -0.07008207 -0.005524188 -0.010986664 -0.021798348 -0.02309588 0.013355879 -0.009398698
-0.028838105 -0.01684864 -0.0059923683 -0.04150427 -0.07565776 -0.049190376 0.011391079 0.07181809
-0.05563304 0.017860753 0.06366587 -0.0070591858 -0.015264415 -0.016562015 0.0369211 -0.05577051
0.018565537 0.0018216692 0.08440727 -0.014456029 -0.07862429 -0.026363492 -0.044597514 0.04172839
0.059163176 -0.006839395 -0.0012095165 -0.03965418 -0.056269493 0.0560458 0.096418545 0.06011621

transformer_encoder.layers.0.norm1.weight f4 [64]
00000000: f696 803f adc7 7f3f 568d 853f 9406 803f
00000010: a407 793f 8a67 823f 041e 813f 4ce0 823f
00000020: 663d 863f e571 7d3f 00b4 813f 0572 7e3f
00000030: 53ed 7d3f 4a62 803f 372e 7d3f 468d 803f
00000040: 0dd3 813f 9287 803f 9cb1 833f cb27 793f
00000050: 4232 823f c2ec 7f3f 2baa 7e3f 4735 7e3f
00000060: 3638 7c3f da36 813f 0da6 813f c5cd 843f
00000070: 4f5f 783f 7a23 823f 2247 833f 9de2 7a3f
00000080: 2121 7c3f 0c91 7c3f 0556 813f 5c8a 7d3f
00000090: ab0b 803f 1694 7a3f 6c58 7e3f 3945 7e3f
000000a0: 8513 803f 6a7d 803f 13f3 813f 15b0 7d3f
000000b0: acd5 7e3f 8e18 803f 86c4 7a3f d3d3 803f
000000c0: 5a38 853f 7de6 7b3f 6241 843f e2b7 823f
000000d0: 2347 803f 0c8a 7d3f dca0 803f 09ae 7b3f
000000e0: efd1 7d3f 30f0 783f 8eab 7f3f 35fd 7b3f
000000f0: 876d 793f 4b43 833f 62f5 7d3f c1ab 7c3f
1.004607 0.99914056 1.0433757 1.0002007 0.97277284 1.0187848 1.0087285 1.02247
1.0487487 0.99001914 1.0133057 0.9939273 0.99190253 1.0029995 0.98898643 1.0043113
1.0142533 1.0041373 1.0288577 0.97326344 1.0171587 0.9997064 0.99478406 0.99300045
0.9852327 1.0094864 1.01288 1.0375296 0.9702043 1.0167077 1.0256083 0.98002034
0.9848805 0.98658824 1.0104376 0.99039245 1.0003561 0.9788221 0.9935367 0.99324375
1.0005957 1.0038273 1.0152305 0.99096805 0.9954479 1.0007493 0.9795612 1.0064644
1.0407822 0.9839857 1.0332453 1.0212367 1.0021709 0.9903877 1.004909 0.9831243
0.9914846 0.972415 0.99871147 0.9843324 0.9743275 1.0254911 0.9920255 0.98699576

transformer_encoder.layers.0.norm1.bias f4 [64]
00000000: 35de fdba 0d15 cabb 99a3 fb3b bc55 09bc
00000010: 4798 84bc 2b2c 17bc 060a 0f3c 8fab 083c
00000020: 2c16 c1bc 78aa 663c 50dc 0e3c 9e20 83bc
00000030: 3c0e 4abc 804f c03b 2c18 be3b d2b4 473c
00000040: 2060 e0bb bad8 4b3b 209b 17ba 0ccc ccb9
00000050: 41d7 d6bb 66a9 9d3b e0a4 3bbc 4a92 86bc
00000060: 6069 96bc 9a2c 573c aaa7 27bc bfc7 c53b
00000070: 9b15 aebc 5a98 f7bb 8379 63bc 31b5 603c
00000080: d8c0 50bc e652 003b 65fe 51bb 5eef f3bb
00000090: 7bcf abbb e15b 85bc 4bfc 463c 29f3 d0bb
000000a0: 2ed2 873b b012 c5bb 1440 543c df63 f2bb
000000b0: f319 42bc 82d6 263c c2a2 b43a 2a2d a3bb
000000c0: 2866 673c 6f69 5d3c 186d 423c dd08 ddbb
000000d0: 3522 34bc 0156 693c 1a6c 373c de86 39bc
000000e0: 9f5b 583c 4762 8d3b 6e3c 44bc 6606 b63c
000000f0: 4ca8 48bc 55aa 4d3b a813 803c b1f7 443c
-0.0019368591 -0.00616706 0.0076794145 -0.008382257 -0.016185893 -0.009226839 0.008730417 0.008341684
-0.023570143 0.014078729 0.008719519 -0.016006764 -0.012332495 0.005868852 0.0058012214 0.012189107
-0.0068473965 0.003110452 -0.00057833083 -0.0003906194 -0.006556422 0.0048114536 -0.0114528835 -0.016427178
-0.018360794 0.013133192 -0.010232845 0.0060357745 -0.021250537 -0.0075560035 -0.013883951 0.013715074
-0.01274129 0.0019580661 -0.00320425 -0.0074443063 -0.0052432395 -0.016279163 0.012145112 -0.006376643
0.0041449284 -0.0060141906 0.012954731 -0.0073971595 -0.011847007 0.010182979 0.0013781416 -0.004979749
0.014123477 0.013513907 0.01186683 -0.0067454414 -0.010994484 0.014241696 0.011195207 -0.011323659
0.013205438 0.004314694 -0.011977298 0.022219848 -0.012247156 0.0031382043 0.015634373 0.012021945

transformer_encoder.layers.0.norm2.weight f4 [64]
00000000: 76d3 803f 02af 803f 909f 863f b5d0 7c3f
00000010: e577 7a3f b29e 813f 714d 803f d917 823f
00000020: 399f 853f 6f89 7d3f c755 813f b8e8 7f3f
00000030: e366 7f3f 8a13 813f 6791 7c3f 23dd 7b3f
00000040: bb0d 813f 4c6a 803f 1ffa 833f 5e85 793f
00000050: a3bb 823f f218 803f c820 7f3f d02e 823f
00000060: 153e 7d3f 0532 803f 9e7f 823f 9458 843f
00000070: e231 7a3f 1311 843f c41a 823f 8da6 7a3f
00000080: daa9 7c3f 5cf5 7f3f 07b3 813f be56 7d3f
00000090: 3dfe 7f3f d6d8 7a3f dece 803f 8c64 7e3f
000000a0: 89c8 7c3f 8645 803f 464f 813f 6b5c 7a3f
000000b0: ae9e 7f3f e015 7f3f 988c 7e3f 72b6 803f
000000c0: d66f 833f 33d2 7c3f 830e 853f ff62 823f
000000d0: d752 803f 31ba 7d3f 2eed 7d3f c4cb 7f3f
000000e0: be3c 7c3f 6790 803f 53c1 7e3f 0d99 7e3f
000000f0: b378 773f 5f82 823f c461 7c3f 66f0 7b3f
1.0064533 1.0053408 1.0517445 0.9875596 0.97839195 1.0126555 1.0023633 1.0163528
1.0439216 0.9903783 1.0104302 0.99964476 0.9976637 1.0084088 0.98659366 0.983843
1.0082315 1.0032439 1.0310706 0.9746913 1.0213512 1.0007613 0.99659395 1.0170536
0.98922855 1.0015265 1.0195196 1.0339532 0.97732365 1.0317711 1.0164418 0.97910386
0.9869667 0.99983764 1.013276 0.98960483 0.9999731 0.97987115 1.0063131 0.9937217
0.9874349 1.0021217 1.0102317 0.9779727 0.998515 0.99642754 0.9943328 1.0055678
1.0268505 0.9875824 1.0395054 1.0186461 1.0025281 0.9911223 0.9919003 0.99920297
0.98530185 1.0044068 0.9951374 0.99452287 0.9666855 1.0196036 0.9858668 0.98413694
