Combat Sports Automation PvP/models/transformer_model.pth (torch, 282690 bytes, 28 tensors)

embedding.weight f4 [64, 7]
-0.07851824 0.0044633895 0.11417032 -0.028286835 0.087097175 0.22826713 0.042687397 0.026319712
0.00973094 0.021748418 0.056107305 -0.123715416 -0.314912 -0.047948454 0.24810722 -0.37715465
-0.2428645 -0.2880919 0.18032734 -0.07256592 -0.062144548 0.35390273 -0.04129247 0.2727578
0.10748611 0.057448596 0.17717355 0.14269814 0.2692103 -0.15151662 -0.2905448 0.008623939
0.019670142 0.2879847 -0.2982908 -0.1472046 -0.15313645 0.17586821 -0.1917149 0.11442893
0.17491311 -0.057387482 -0.111560404 0.15324646 -0.06633035 -0.2808385 -0.28877473 -0.25718787
-0.11276078 0.28811023 -0.3788831 -0.35821196 0.21435694 -0.18576829 -0.42221326 0.24942829
0.3205606 -0.17647628 -0.26880696 0.049168658 0.06622947 0.32395276 -0.17833105 -0.2962099
-0.41522473 0.27544668 0.26802793 0.21842422 0.40450546 -0.24855721 -0.34972188 0.43244117
-0.28655976 0.31041783 0.27698892 -0.0956723 -0.15278262 -0.06644863 0.098612405 0.24897455
0.03931754 0.3338758 0.024690054 -0.34152254 0.14807174 -0.15519717 -0.12391599 -0.1405567
0.2207372 0.20073934 0.037583522 -0.30620086 0.11548562 -0.097645216 0.040527068 -0.29610294
-0.16305396 -0.369297 -0.21126737 0.09592917 -0.07328876 -0.075737454 -0.3332974 -0.22699097
-0.23187007 0.14914683 0.23057027 0.29964715 0.08362926 -0.098185636 -0.33284515 -0.3192322
-0.18290915 -0.19798334 0.24297099 -0.210417 -0.23761769 -0.030661345 -0.251095 -0.0918684
-0.069676615 -0.07832601 -0.39198172 0.24673715 0.01087602 -0.3428757 -0.20306526 -0.018771715
-0.21605751 0.4074291 0.12997238 0.1855072 -0.05849714 0.047284454 0.15767731 -0.19704337
0.028281381 -0.009044043 -0.30453968 -0.13244335 0.1200895 0.0344838 0.23177433 0.28576916
-0.094453014 0.16479903 -0.17819153 -0.28403607 -0.019273946 0.14311315 0.18441944 0.014058258
-0.11484937 -0.056629054 0.015123785 0.31308046 -0.073382825 0.030482294 0.2529656 -0.32310972
0.02931927 -0.26220003 -0.12998107 -0.009528942 0.30695575 -0.05539739 0.18989034 0.22650772
0.16018525 0.3963436 0.31067163 -0.045675963 0.17312096 0.24373648 -0.14843632 0.1655862
-0.0930452 0.09821909 -0.22055696 0.005566555 0.22321476 0.27537492 0.11268261 -0.35280672
0.38500965 -0.3928096 -0.17752703 -0.3156272 -0.33847067 0.16379073 -0.0754927 -0.31999305
0.23048377 0.046314623 -0.2129002 -0.05611597 -0.29829445 -0.18977496 -0.32922757 0.03385429
0.38271645 -0.13504314 0.19185212 -0.11124772 -0.08193554 0.08294205 0.048081927 0.26304358
-0.03366483 -0.29978383 0.17931357 -0.031927872 -0.17392442 0.108813055 -0.04901091 0.16493867
0.2791088 0.1443331 0.23918925 -0.10011953 -0.14287347 -0.26582494 0.2927361 0.20205484
-0.11505774 0.016672142 0.15594675 -0.2264135 0.19327822 -0.21518646 0.29594472 -0.20928842
-0.01552679 -0.26605198 -0.015460823 -0.32008323 -0.2833891 0.1909664 0.09593469 0.22342572
-0.18380994 -0.23763573 0.36896026 -0.26274002 -0.09427238 -0.33854872 -0.36990136 -0.3101148
0.4208901 -0.1835692 0.3112531 -0.26518345 0.09440276 -0.166546 -0.253313 0.34925884
00000000: 2cce a0bd a041 923b 21d2 e93d cbb9 e7bc
00000010: 0160 b23d dcbe 693e fbd8 2e3d 709c d73c
00000020: 856e 1f3c bd29 b23c c6d0 653d 825e fdbd
00000030: 253c a1be 9965 44bd d20f 7e3e 6a1a c1be
00000040: 79b1 78be c880 93be bba7 383e 719d 94bd
00000050: 488b 7ebd bd32 b53e 4b22 29bd e9a6 8b3e
00000060: ad21 dc3d 384f 6b3d fc6c 353e 761f 123e
00000070: efd5 893e 2c27 1bbe 4ac2 94be 6c4b 0d3c
00000080: 4723 a13c bb72 933e 92b9 98be cdbc 16be
00000090: cdcf 1cbe cc16 343e e950 44be b759 ea3d
000000a0: 6c1c 333e 230f 6bbd c879 e4bd a4ec 1c3e
000000b0: 35d8 87bd 10ca 8fbe 48da 93be 21ae 83be
000000c0: 20ef e6bd 2f83 933e f7fc c1be 8f67 b7be
000000d0: 6380 5b3e 0b3a 3ebe 562c d8be 216a 7f3e
000000e0: 8520 a43e 33b6 34be 11a1 89be 1365 493d
000000f0: 51a3 873d 23dd a53e 6a9c 36be d3a8 97be
00000100: 5698 d4be 5907 8d3e f53a 893e 99aa 5f3e
00000110: 571b cf3e c885 7ebe bf0e b3be ee68 dd3e
00000120: f6b7 92be 16ef 9e3e 7ed1 8d3e d7ef c3bd
00000130: 0c73 1cbe 3816 88bd 4df5 c93d 2ff3 7e3e
00000140: 6e0b 213d c5f1 aa3e cc42 ca3c 0bdc aebe
00000150: 1ea0 173e 02ec 1ebe abc7 fdbd 18ee 0fbe
00000160: ef08 623e 9d8e 4d3e 2ef1 193d 5cc6 9cbe
00000170: ba83 ec3d 37fa c7bd b6ff 253d ce9a 97be
00000180: 9ef7 26be 7f14 bdbe 7956 58be 8376 c43d
00000190: 6b18 96bd 3d1c 9bbd f5a5 aabe 5270 68be
000001a0: 596f 6dbe f2b9 183e 9d1a 6c3e 5a6b 993e
000001b0: d145 ab3d 8d15 c9bd ae6a aabe 6772 a3be
000001c0: 894c 3bbe 25bc 4abe 63cd 783e 8e77 57be
000001d0: 0d52 73be 802d fbbc 868f 80be 8025 bcbd
000001e0: 9db2 8ebd 6369 a0bd d4b1 c8be aaa8 7c3e
000001f0: 5631 323c 678d afbe 57f0 4fbe 24c7 99bc
00000200: 2e3e 5dbe 8c9a d03e 7b17 053e 99f5 3d3e
00000210: b29a 6fbd 58ad 413d 2976 213e bdc5 49be
00000220: 5bae e73c 772d 14bc a0ec 9bbe 3b9f 07be
00000230: 7cf1 f53d e33e 0d3d 4056 6d3e 5650 923e
00000240: 9570 c1bd 14c1 283e d777 36be 2d6d 91be
00000250: 65e4 9dbc 418c 123e 73d8 3c3e 9c54 663c
00000260: 2636 ebbd def3 67bd c0c9 773c 154c a03e
00000270: bc49 96bd 01b6 f93c b584 813e a36e a5be
00000280: f72e f03c 153f 86be c219 05be 481f 1cbc
00000290: 4e29 9d3e 60e8 62bd 9d72 423e a4f1 673e
000002a0: 9a07 243e 8ced ca3e 5a10 9f3e b816 3bbd
000002b0: 9f46 313e 0e96 793e b1ff 17be 6e8f 293e
000002c0: 7b8e bebd 1727 c93d afd9 61be a667 b63b
000002d0: 6992 643e f1fd 8c3e 24c6 e63d 15a3 b4be
000002e0: fc1f c53e 571e c9be a5c9 35be e399 a1be
000002f0: 074c adbe c2b8 273e eb9b 9abd 21d6 a3be
00000300: f003 6c3e 67b4 3d3d 8302 5abe dcd9 65bd
00000310: 0dba 98be 5e54 42be 8490 a8be ccaa 0a3d
00000320: 69f3 c33e c048 0abe e274 443e d8d5 e3bd
00000330: d2cd a7bd 86dd a93d 8ef1 443d a6ad 863e
00000340: 22e4 09bd 447d 99be fa9d 373e cdc6 02bd
00000350: 3e19 32be 61d9 de3d aabf 48bd afe5 283e
00000360: 59e7 8e3e 0ecc 133e 07ee 743e 780b cdbd
00000370: 6c4d 12be 351a 88be 82e1 953e 77e7 4e3e
00000380: 64a3 ebbd 0494 883c 81b0 1f3e f1d8 67be
00000390: baea 453e d759 5cbe 1186 973e b44f 56be
000003a0: 1464 7ebc f737 88be 644f 7dbc f3e1 a3be
000003b0: 6018 91be b28c 433e 6879 c43d b6c9 643e
000003c0: ac38 3cbe c856 73be 5ce8 bc3e dc85 86be
000003d0: e111 c1bd 4256 adbe b663 bdbe 5ec7 9ebe
000003e0: e87e d73e 90f9 3bbe 915c 9f3e 20c6 87be
000003f0: 3c56 c13d 098b 2abe 3eb2 81be 0ed2 b23e

embedding.bias f4 [64]
0.2900386 0.15108985 -0.31683508 0.085815676 0.26274884 -0.033523217 -0.20114754 0.32457116
-0.27488026 -0.058723398 0.16652836 -0.1405745 0.031789657 0.21733154 0.1691031 -0.24407896
-0.0468477 0.050200947 -0.008051935 0.2425018 -0.36928856 -0.14921814 0.32316154 0.28049487
0.34736767 0.23511425 0.170133 -0.1543743 -0.32295272 0.17365526 0.0044617807 -0.09236625
0.046593115 0.27619395 -0.17116097 -0.35147703 -0.23536317 0.23277903 -0.14533736 -0.36988994
0.19988535 0.05365583 -0.1260393 -0.15771915 0.084830694 0.13886079 0.08885986 0.37758324
-0.18750587 -0.32632974 -0.1949415 -0.2733493 0.34448326 -0.11197845 0.23431385 -0.040062755
0.26460758 -0.34224734 0.18480583 -0.26392412 0.28884357 0.19711164 -0.24343568 0.34926844
00000000: f07f 943e 4cb7 1a3e 3538 a2be 21c0 af3d
00000010: 0487 863e a44f 09bd 9ff9 4dbe 312e a63e
00000020: 1bbd 8cbe f287 70bd 6986 2a3e c3f2 0fbe
00000030: df35 023d 298c 5e3e 5d29 2d3e d6ef 79be
00000040: 60e3 3fbd 829f 4d3d 43ec 03bc 6452 783e
00000050: 6413 bdbe a4cc 18be 6e75 a53e 069d 8f3e
00000060: 2dda b13e cac1 703e 5837 2e3e 4c14 1ebe
00000070: 0f5a a5be afd2 313e 2134 923b 842a bdbd
00000080: 6cd8 3e3d 4b69 8d3e d244 2fbe ccf4 b3be
00000090: 0b03 71be a05d 6e3e 51d3 14be 3762 bdbe
000000a0: bfae 4c3e 37c6 5b3d 7210 01be 2181 21be
000000b0: b7bb ad3d 8631 0e3e 29fc b53d 9752 c13e
000000c0: 8a01 40be b114 a7be bf9e 47be 70f4 8bbe
000000d0: 1c60 b03e f554 e5bd f8ef 6f3e d818 24bd
000000e0: a57a 873e 0b3b afbe bd3d 3d3e 1021 87be
000000f0: 4ee3 933e a2d7 493e 3447 79be 50d3 b23e

transformer_encoder.layers.0.self_attn.in_proj_weight f4 [192, 64]
0.017303014 0.06362035 0.07239406 0.0075171404 0.06596848 -0.0017112818 0.09843068 -0.07434609
-0.13766766 -0.111673936 0.10436837 0.12859517 -0.18845002 0.12400666 -0.0019926415 0.07853278
0.030996732 -0.104389824 -0.13929854 -0.057657693 -0.040566098 -0.044680502 -0.06635289 0.0039827554
-0.16427605 0.032165125 0.19058694 -0.043695185 -0.081601895 -0.063630454 -0.09648919 -0.00250229
0.013982536 0.09666536 0.07676622 -0.041299168 0.037256885 -0.09520905 -0.0996352 0.024113063
0.047168776 -0.012753364 -0.09697312 -0.12471801 0.18656474 0.10557196 -0.08732787 -0.110719115
-0.16912185 -0.000951643 0.010925765 0.04526505 -0.15984876 -0.07300269 -0.04172284 -0.08440967
-0.026392637 0.05853224 0.051371988 -0.028523352 -0.15864299 0.048182916 -0.09583035 -0.042579226
-0.07280891 0.014647913 0.0419758 0.01265649 0.1493336 0.033748038 0.0007264563 0.08870406
-0.022508547 0.05635184 -0.038455028 -0.03044565 -0.04865944 0.13704005 -0.0050858213 -0.06831859
-0.06021253 0.018366385 -0.06350928 0.029159853 0.015250002 -0.023572033 0.050483037 -0.02780326
0.06957211 -0.044782653 -0.15854578 0.020625923 -0.064161696 0.09748405 0.060140446 0.0074199596
0.10398628 0.16697775 -0.0031662174 -0.02316341 0.07259033 -0.09541012 -0.01943757 -0.052047543
0.07103079 0.005362858 0.09759353 0.03319755 -0.08054778 0.13845742 -0.014999441 0.19311029
0.06380798 0.09571002 0.10499791 -0.0446657 -0.069788635 0.17786822 0.08927207 -0.041101724
0.019698402 -0.092575885 -0.04720947 -0.027050164 0.12500033 -0.13530359 0.14337371 0.103137694
0.050840326 0.0859544 0.1119589 0.11486521 -0.022851432 0.0032116126 -0.11540629 0.16434066
0.1485028 -0.0054311887 -0.13779417 -0.008737457 0.027190782 0.05347211 0.13756981 0.0032515517
-0.04146294 -0.06868415 8.998617e-06 -0.16620536 0.06545389 -0.07198428 0.062489364 0.06112217
-0.13649125 -0.027391186 -0.11340109 -0.042896017 -0.11301802 0.055054247 -0.07590267 -0.02882479
0.00047588855 0.08823595 0.040184423 0.042469546 -0.11538964 0.13105333 0.016536146 0.08620656
-0.044657417 0.12952468 0.12980802 -0.10739306 0.11672696 0.1762262 0.12478512 -0.08072436
0.08248963 -0.10215725 -0.11910399 0.084249906 -0.09281782 -0.089273795 -0.058821224 -0.036239725
-0.06676818 0.16736887 -0.07163202 -0.09620162 -0.03576887 0.027374491 -0.09156036 -0.047583096
-0.02572663 -0.11792386 -0.09530752 0.05627132 0.0803468 -0.061226875 -0.1362487 -0.020619623
-0.095891215 0.13881461 0.05693821 0.15349233 0.03323658 0.049170893 -0.08114796 0.109207205
0.006596014 0.109505706 0.14203902 0.020427316 -0.06719962 -0.022881558 0.06520965 0.11286616
-0.031487796 0.018995386 -0.21087803 -0.14306006 0.035930533 0.16530271 0.057976533 0.08675686
0.08272669 -0.08094851 0.090538904 -0.048522297 0.14075927 0.0010458663 0.1211238 0.04566264
-0.03562367 -0.026867041 -0.05099179 0.027724003 -0.16040705 0.008379676 -0.10995059 -0.077018514
0.07243613 -0.05632696 0.15984198 -0.076810464 0.038894385 -0.026425261 0.051237427 0.13065973
-0.14058618 0.13533764 -0.07254569 0.12817752 -0.08261686 0.0074850805 0.103035145 -0.11978537
00000000: 0dbf 8d3c 634b 823d 5643 943d 5852 f63b
00000010: 7c1a 873d 174d e0ba 0696 c93d c342 98bd
00000020: c0f8 0cbe 4eb5 e4bd 15bf d53d 74ae 033e
00000030: 0bf9 40be 34f7 fd3d fa96 02bb cbd5 a03d
00000040: dcec fd3c 55ca d5bd 47a4 0ebe 792a 6cbd
00000050: a328 26bd e702 37bd 06e4 87bd c681 823b
00000060: fb37 28be 94bf 033d 3929 433e b9f9 32bd
00000070: e51e a7bd af50 82bd 209c c5bd 76fd 23bb
00000080: 0217 653c 7df8 c53d 9c37 9d3d 5129 29bd
00000090: ad9a 183d f6fc c2bd 8a0d ccbd c288 c53c
000000a0: 0c34 413d 7cf3 50bc d899 c6bd 286c ffbd
000000b0: d40a 3f3e 1d36 d83d f4d8 b2bd b4c0 e2bd
000000c0: 472e 2dbe ae77 79ba fb01 333c d867 393d
000000d0: 65af 23be 6f82 95bd 92e5 2abd fade acbd
000000e0: 5f35 d8bc 81bf 6f3d 6f6b 523d cea9 e9bc
000000f0: 4f73 22be 735b 453d b442 c4bd 8e67 2ebd
00000100: d61c 95bd cdfd 6f3c d1ee 2b3d 2b5d 4f3c
00000110: e8ea 183e 623b 0a3d a86f 3e3a 79aa b53d
00000120: d863 b8bc 30d1 663d 0583 1dbd 2869 f9bc
00000130: 1f4f 47bd 3a54 0c3e f6a6 a6bb 9eea 8bbd
00000140: 6aa1 76bd 1a75 963c 2711 82bd a5e0 ee3c
00000150: 25db 793c 231a c1bc 4dc7 4e3d aac3 e3bc
00000160: d37b 8e3d 046e 37bd d359 22be b2f7 a83c
00000170: 3567 83bd b8a5 c73d d455 763d 2223 f33b
00000180: c2f6 d43d 37fc 2a3e 5080 4fbb 31c1 bdbc
00000190: 3daa 943d 6266 c3bd 8a3b 9fbc ce2f 55bd
000001a0: 9778 913d eaba af3b 1edf c73d 27fa 073d
000001b0: 3cf6 a4bd c8c7 0d3e 37c0 75bc b4be 453e
000001c0: c2ad 823d 9d03 c43d 2509 d73d 62f3 36bd
000001d0: 58ed 8ebd 1623 363e 46d4 b63d 485a 28bd
000001e0: 8b5e a13c 6d98 bdbd b85e 41bd 4e98 ddbc
000001f0: 1600 003e 068d 0abe 8fd0 123e db39 d33d
00000200: f23d 503d dc08 b03d b54a e53d 743e eb3d
00000210: ed32 bbbc eb79 523b 225a ecbd eb48 283e
00000220: 1e11 183e 1df8 b1bb ea19 0dbe 8d27 0fbc
00000230: 34bf de3c 9205 5b3d 1adf 0c3e fc17 553b
00000240: 0bd5 29bd 47aa 8cbd c4f8 1637 bd31 2abe
00000250: b00c 863d 7f6c 93bd d9f4 7f3d 3e5b 7a3d
00000260: 5dc4 0bbe 7b63 e0bc d53e e8bd bcb3 2fbd
00000270: fe75 e7bd 9080 613d dc72 9bbd f721 ecbc
00000280: ae80 f939 0db5 b43d 6c98 243d 8cf4 2d3d
00000290: 6751 ecbd d832 063e d076 873c 118d b03d
000002a0: b2ea 36bd 1ea2 043e 65ec 043e e5f0 dbbd
000002b0: 8b0e ef3d a474 343e 578f ff3d d052 a5bd
000002c0: 53f0 a83d d237 d1bd cbec f3bd 378b ac3d
000002d0: 4517 bebd 2ed5 b6bd 86ee 70bd 1b70 14bd
000002e0: c1bd 88bd bf62 2b3e cfb3 92bd 5b05 c5bd
000002f0: 6182 12bd 7840 e03c ff83 bbbd 7ee6 42bd
00000300: a7c0 d2bc 1182 f1bd 9730 c3bd c17c 663d
00000310: dd8c a43d 08c9 7abd c784 0bbe 7cea a8bc
00000320: 9d62 c4bd 6b25 0e3e 0a38 693d 182d 1d3e
00000330: 1523 083d 6b67 493d e730 a6bd 07a8 df3d
00000340: 6023 d83b 8744 e03d ad72 113e 3057 a73c
00000350: f49f 89bd 1b72 bbbc a38c 853d 6026 e73d
00000360: 59f9 00bd 369c 9b3c 69f0 57be 567e 12be
00000370: e52b 133d 1d45 293e cd78 6d3d 95ad b13d
00000380: 9c6c a93d 55c8 a5bd 766c b93d 51bf 46bd
00000390: 3323 103e 7315 893a c10f f83d c008 3b3d
000003a0: 20ea 11bd 4518 dcbc c4dc 50bd 731d e33c
000003b0: bf41 24be e94a 093c c62d e1bd e2bb 9dbd
000003c0: 6559 943d 19b7 66bd 9ead 233e ce4e 9dbd
000003d0: b84f 1f3d ca79 d8bc 56de 513d aacb 053e
000003e0: d3f5 0fbe f395 0a3e d692 94bd f840 033e
000003f0: 0733 a9bd 6845 f53b 1704 d33d 0852 f5bd

transformer_encoder.layers.0.self_attn.in_proj_bias f4 [192]
-0.019375192 0.012222551 0.010400836 -0.009305567 -0.020471362 -0.006191794 -0.0057326197 0.019239597
0.023905626 0.003965444 -0.00035410933 -0.008010049 -0.0006908751 0.020737661 0.0038145995 0.0063922787
0.0035169818 0.016225183 -0.012343881 0.0056753927 0.013117394 0.008871356 -0.0019235737 0.02139326
0.00925362 -0.016001554 -0.005769338 -0.016441293 -0.01231769 0.015120068 -0.022057336 0.007281872
-0.00011414226 -0.015521688 0.007336449 0.013646978 -0.010787594 0.0014575027 0.0067415684 -0.0035122999
-0.004355959 0.0065313824 -2.2963613e-05 -0.0012781048 0.0081852125 -0.0015519389 0.013757687 -0.010315847
-0.015569994 0.018599974 -0.0005351558 -0.013857478 0.01787988 -0.029746305 -0.029957298 0.0038739943
0.01113345 -0.029863443 0.008346389 0.004059557 -0.0146324625 -0.0006516273 0.0041914065 -0.022061484
-3.6254954e-05 -1.1955621e-05 -0.00015881452 0.0001337085 0.00012401822 0.0001869925 0.00013777972 2.9045427e-06
-6.334173e-05 -1.8122688e-05 -0.00021704877 8.947297e-05 4.6497466e-05 -7.2148425e-05 -0.00016675433 1.2940347e-06
-2.5607522e-05 -0.00017031476 0.00010828046 -0.00015632452 -7.4613905e-05 -0.00017747328 0.000115662035 -1.633734e-05
-0.00033541498 4.161257e-05 0.00021181362 0.00017313538 -1.2836996e-07 -8.0135585e-05 8.602282e-05 -0.00012122607
-0.00020320524 6.103112e-05 -5.8710328e-05 -0.00012540274 0.00012801218 -5.953707e-06 0.000111417154 0.00028545363
9.076549e-05 -5.2245952e-05 -7.408185e-05 -0.00017266328 -6.338196e-05 -0.00012375905 0.00017900317 2.0997355e-05
-5.55757e-05 3.3097513e-05 -6.3853427e-06 5.375717e-05 3.1970492e-05 0.00013920988 8.274325e-05 5.010625e-05
-1.49179095e-05 -4.8416746e-06 -8.204318e-05 0.00019939274 8.707111e-05 -0.00017359338 -5.7917918e-05 6.469234e-05
-0.012673148 -0.01122019 0.0013200523 0.017028257 -0.01639924 0.009825744 -0.0033252963 -0.0077081644
-0.0040075923 -0.004785621 -0.0065208524 0.0064599724 -0.0057971864 -0.014850969 -0.008545835 -0.012226183
-0.011466623 -0.0029177426 0.002375914 0.011489262 -0.011784674 0.0136367 0.013819535 -0.0153616825
-0.019327015 0.007015448 -0.0014824619 0.0152149815 -0.012930236 -0.0038609735 0.010502323 -0.013671575
0.005448983 -0.01663267 0.011949745 0.0017519846 0.00757913 -0.0072310865 0.009890443 0.005413059
0.009425707 0.0008702614 0.00094777014 1.0227161e-05 -0.027206972 0.005638444 0.011071209 0.013831549
-0.011444717 0.00526917 -0.0084644295 0.0023447694 0.002066439 -0.00812386 -0.0050239167 -0.0037408338
0.006426099 0.014805891 -0.006202301 -0.002400596 -0.0047243102 -0.008447175 -0.00020977618 -0.013010771
00000000: b9b8 9ebc 1841 483c 4568 2a3c 6076 18bc
00000010: 8fb3 a7bc 88e4 cabb b3d8 bbbb 5c9c 9d3c
00000020: bbd5 c33c 8ef0 813b c0a7 b9b9 953c 03bc
00000030: d81b 35ba 07e2 a93c 5cfe 793b 5276 d13b
00000040: 2a7d 663b adea 843c fd3d 4abc a5f8 b93b
00000050: 57ea 563c 2a59 113c 6c20 fcba eb40 af3c
00000060: 7f9c 173c b115 83bc b70c bdbb e4af 86bc
00000070: 23d0 49bc 29ba 773c 96b1 b4bc c59c ee3b
00000080: a95f efb8 ae4e 7ebc 9866 f03b 9397 5f3c
00000090: 73be 30bc ad09 bf3a 60e8 dc3b 9d2e 66bb
000000a0: 6fbc 8ebb 3505 d63b fca1 c0b7 1586 a7ba
000000b0: 451b 063c 6e6a cbba ec67 613c cc03 29bc
000000c0: 4a19 7fbc f95e 983c b349 0cba 7a0a 63bc
000000d0: d378 923c 86ae f3bc 0269 f5bc d7e2 7d3b
000000e0: 1369 363c 2ea4 f4bc 4bbf 083c 0806 853b
000000f0: ffbc 6fbc f8d1 2aba 1158 893b 49ba b4bc
00000100: 7610 18b8 0095 48b7 7387 26b9 1a34 0c39
00000110: e30a 0239 6b13 4439 f678 1039 aaeb 4236
00000120: 55d6 84b8 2d06 98b7 9697 63b9 6fa3 bb38
00000130: 4606 4338 644e 97b8 c6da 2eb9 b2ae ad35
00000140: bccf d6b7 8596 32b9 a114 e338 0beb 23b9
00000150: 097a 9cb8 1f18 3ab9 958f f238 2c0c 89b7
00000160: a3da afb9 2889 2e38 491a 5e39 ad8b 3539
00000170: 11d6 09b4 770e a8b8 2667 b438 c03a feb8
00000180: 7e13 55b9 abfb 7f38 bc3f 76b8 8b7e 03b9
00000190: 023b 0639 f4c5 c7b6 a1a8 e938 f0a8 9539
000001a0: 5a59 be38 aa22 5bb8 645c 9bb8 f20c 35b9
000001b0: eeeb 84b8 51c5 01b9 ccb2 3b39 7a23 b037
000001c0: f419 69b8 2fd2 0a38 ad41 d6b6 5279 6138
000001d0: 0e18 0638 def8 1139 7286 ad38 2d29 5238
000001e0: ef47 7ab7 ab75 a2b6 990e acb8 1514 5139
000001f0: f299 b638 9e06 36b9 e4ec 72b8 70ab 8738
00000200: 09a3 4fbc e3d4 37bc 9b05 ad3a d87e 8b3c
00000210: b357 86bc 28fc 203c 37ed 59bb c594 fcbb
00000220: 1f52 83bb b3d0 9cbb e0ac d5bb 2dae d33b
00000230: 53f6 bdbb 7b51 73bc d403 0cbc 5450 48bc
00000240: 81de 3bbc 9937 3fbb 39b5 1b3b 753d 3c3c
00000250: 8114 41bc 776c 5f3c 556b 623c 91af 7bbc
00000260: b053 9ebc d8e1 e53b 2b4f c2ba 4248 793c
00000270: 57d9 53bc 6308 7dbb ef11 2c3c befe 5fbc
00000280: 628d b23b 3d41 88bc ddc8 433c d9a2 e53a
00000290: 5a5a f83b c0f2 ecbb 860b 223c 0860 b13b
000002a0: 486e 1a3c 4122 643a c773 783a 5295 2b37
000002b0: 28e1 debc b2c2 b83b 0464 353c b99d 623c
000002c0: 9f82 3bbc 00a9 ac3b 64ae 0abc b4aa 193b
000002d0: 186d 073b f019 05bc ab9f a4bb c728 75bb
000002e0: 0792 d23b 6894 723c ac3c cbbb 5153 1dbb
000002f0: 63ce 9abb 0566 0abc 5df7 5bb9 212b 55bc

transformer_encoder.layers.0.self_attn.out_proj.weight f4 [64, 64]
0.08752893 0.12683074 0.07306131 -0.011528956 0.064531155 0.030062778 -0.10552317 0.017304895
0.04046374 0.08081968 -0.100527026 -0.04184436 0.039959997 -0.13285932 0.10934603 -0.02588127
0.044599917 0.03401442 0.03196979 -0.08638677 -0.08127922 0.010595488 -0.019177863 -0.08393836
-0.09891133 0.050083525 -0.097525775 -0.07882836 -0.029129965 0.04415288 -0.08277323 0.05261677
-0.0787304 0.0056100655 0.03939115 -0.08716996 -0.029018309 -0.012335225 -0.08403974 -0.1383006
-0.017846307 -0.08714067 0.03741725 0.029238956 -0.10467441 -0.12453043 -0.11714261 0.11995829
0.09826049 -0.12367651 0.08908254 0.07329894 -0.018475357 -0.07153661 0.02605569 -0.016732357
0.020015681 -0.05257026 -0.019527914 0.11358802 0.09545245 0.037446417 -0.046528704 -0.07292242
-0.033229064 -0.0014802181 0.055076472 -0.12239982 -0.06809461 -0.013166185 -0.08586282 -0.12834977
-0.12683265 -0.07709483 0.13046531 -0.11126508 0.123228855 -0.02713067 0.0503277 -0.0781702
-0.06431659 0.05610922 -0.025507363 -0.118190184 -0.046996213 0.0087805865 -0.05483588 -0.10276075
-0.081035525 0.10063715 0.09806833 0.08643431 0.061650515 0.016118849 -0.03220984 -0.01434361
0.058823112 -0.08191445 -0.117161505 -0.023138985 -0.06995074 -0.084033996 0.07394295 0.051723268
0.06256397 0.122645706 -0.043410845 0.010893032 -0.0434036 -0.080503434 -0.04615993 -0.016457845
0.03952296 -0.038292073 -0.10515162 0.030093292 0.06481437 0.08946271 0.061073642 0.03516816
-0.06556238 0.08708451 0.01039095 -0.06508161 0.08295708 -0.13216317 -0.11791384 0.049211573
-0.003453807 -0.011973724 0.096329756 0.103230186 -0.13865602 -0.12231508 0.07654789 -0.02898219
0.010349742 -0.03690033 -0.04338963 -0.032158893 -0.058231745 -0.010728845 0.0820764 -0.00926295
0.087565154 0.008280055 0.019480547 0.10125647 -0.08101329 -0.010531428 0.09061136 0.070380405
-0.07476102 0.02947566 0.05173559 -0.0138376085 -0.07774405 -0.08882164 0.053426977 0.1145475
-0.029824382 -0.107582904 -0.00055022165 -0.0024323182 0.04603278 -0.010865315 0.016765298 -0.03265815
0.08533578 0.021703243 -0.0035235104 0.03420693 0.12692924 0.123643726 0.0012530416 0.09585592
-0.10582811 -0.10980839 0.12642401 0.027625676 0.12034135 -0.07792259 -0.09515176 0.034719314
0.025924139 -0.051680565 0.07222346 0.105815336 -0.07564952 -0.06197 0.08538634 0.036876366
-0.00755886 -0.04023447 0.05856162 0.10299182 0.071930654 -0.024208348 -0.13226266 -0.10123226
0.060511053 -0.07520565 -0.09793131 -0.055115305 0.071888395 0.05692089 -0.09622002 -0.0071224202
-0.060155436 0.11167257 0.12314392 0.08099138 -0.039527077 0.010589958 0.05845353 0.0033450974
-0.024960857 0.013738789 -0.12891045 -0.03014831 0.014187104 0.041563313 -0.046171617 -0.094882414
0.004978804 -0.06259682 -0.04073338 0.028950147 -0.08219506 -0.09463567 -0.026862655 -0.03267
0.06253989 -0.07996201 -0.06306378 -0.050634213 -0.018737968 -0.1285311 -0.017734908 -0.01603888
-0.021477893 0.05956064 0.028743349 0.083909765 -0.09498361 -0.12010075 0.08916601 -0.111086324
0.04757567 0.09084848 0.10113356 0.090796195 0.08475343 0.027281094 0.12889028 -0.095285
00000000: 5e42 b33d ebdf 013e 2ba1 953d f2e3 3cbc
00000010: e928 843d 3746 f63c 881c d8bd ffc2 8d3c
00000020: 4ebd 253d ca84 a53d 1de1 cdbd fe64 2bbd
00000030: 18ad 233d 460c 08be d0f0 df3d f504 d4bc
00000040: 67ae 363d b452 0b3d c1f2 023d 8ceb b0bd
00000050: b875 a6bd b398 2d3c e51a 9dbc e0e7 abbd
00000060: 0692 cabd 6224 4d3d 98bb c7bd c370 a1bd
00000070: f7a1 eebc a6d9 343d 0385 a9bd af84 573d
00000080: 673d a1bd a4d4 b73b 9d58 213d 2a86 b2bd
00000090: ceb7 edbc af19 4abc 071d acbd ac9e 0dbe
000000a0: 6b32 92bc cf76 b2bd d542 193d 8986 ef3c
000000b0: 895f d6bd cf09 ffbd 77e8 efbd b1ac f53d
000000c0: cc3c c93d 1c4a fdbd e870 b63d c11d 963d
000000d0: a259 97bc c981 92bd be72 d53c 4c12 89bc
000000e0: edf7 a33c ea53 57bd 01f9 9fbc d6a0 e83d
000000f0: 937c c33d 6a61 193d e294 3ebd 5a58 95bd
00000100: 331b 08bd e103 c2ba de97 613d c2ac fabd
00000110: 3075 8bbd fbb6 57bc d9d8 afbd 1f6e 03be
00000120: 6be0 01be e5e3 9dbd b398 053e f2de e3bd
00000130: 695f fc3d 2441 debc 6b24 4e3d b317 a0bd
00000140: 6bb8 83bd c8d2 653d d1f4 d0bc b20d f2bd
00000150: 1a7f 40bd 73dc 0f3c 969b 60bd 3a74 d2bd
00000160: f4f5 a5bd da1a ce3d 0cd8 c83d 7904 b13d
00000170: 4085 7c3d ad0b 843c 77ee 03bd 7601 6bbc
00000180: 81f0 703d c3c2 a7bd 5ff2 efbd f88d bdbc
00000190: 5542 8fbd 041a acbd 676f 973d c7db 533d
000001a0: 8a21 803d ac2d fb3d 92cf 31bd b078 323c
000001b0: f9c7 31bd fcde a4bd 3212 3dbd 9ad2 86bc
000001c0: d4e2 213d 26d8 1cbd bc59 d7bd 3586 f63c
000001d0: 65bd 843d 3a38 b73d 5b28 7a3d 7d0c 103d
000001e0: 9245 86bd 5d59 b23d ce3e 2a3c 8249 85bd
000001f0: 67e5 a93d c855 07be d07c f1bd 1392 493d
00000200: 4459 62bb 702d 44bc 8948 c53d 596a d33d
00000210: d8fb 0dbe 5480 fabd 24c5 9c3d 0f6c edbc
00000220: f791 293c cd24 17bd 53b9 31bd 0bb9 03bd
00000230: 6984 6ebd 0ac8 2fbc ac17 a83d a1c3 17bc
00000240: 5c55 b33d 11a9 073c ab95 9f3c 8d5f cf3d
00000250: 4cea a5bd 038c 2cbc 7392 b93d 9a23 903d
00000260: 4e1c 99bd f076 f13c b3e8 533d 23b7 62bc
00000270: 4638 9fbd 1fe8 b5bd 3fd6 5a3d e197 ea3d
00000280: 4352 f4bc 6d54 dcbd c03c 10ba 8767 1fbb
00000290: de8c 3c3d 6f04 32bc 6157 893c 8dc4 05bd
000002a0: 87c4 ae3d 00cb b13c b2ea 66bb 911c 0c3d
000002b0: bdf9 013e ec38 fd3d 193d a43a 1c50 c43d
000002c0: 68bc d8bd 39e3 e0bd 4c75 013e 3e4f e23c
000002d0: 8775 f63d e195 9fbd edde c2bd d735 0e3d
000002e0: dc5e d43c 00af 53bd e5e9 933d b6b5 d83d
000002f0: 23ee 9abd 41d4 7dbd 09df ae3d ac0b 173d
00000300: 50b0 f7bb e6cc 24bd 4fde 6f3d 60ed d23d
00000310: 6150 933d 9650 c6bc dd6f 07be dc52 cfbd
00000320: 70da 773d 6b05 9abd 3690 c8bd 96c0 61bd
00000330: 393a 933d e125 693d 000f c5bd 3163 e9bb
00000340: 8c65 76bd 97b4 e43d e132 fc3d cfde a53d
00000350: 25e7 21bd 8181 2d3c f86c 6f3d 6c39 5b3b
00000360: b67a ccbc a818 613c 1a01 04be 97f9 f6bc
00000370: 0771 683c 4b3e 2a3d 731e 3dbd b651 c2bd
00000380: 3c25 a33b c332 80bd 0bd8 26bd dc28 ed3c
00000390: e255 a8bd 59d0 c1bd 120f dcbc fad0 05bd
000003a0: ea14 803d 1fc3 a3bd 9527 81bd d265 4fbd
000003b0: 5e80 99bc a89d 03be cc48 91bc f863 83bc
000003c0: 68f2 afbc dcf5 733d 2c77 eb3c e2d8 ab3d
000003d0: c486 c2bd 62f7 f5bd ab9c b63d 3a81 e3bd
000003e0: b5de 423d c50e ba3d 1d1f cf3d 5bf3 b93d
000003f0: 3593 ad3d 9a7c df3c d0fb 033e c824 c3bd

transformer_encoder.layers.0.self_attn.out_proj.bias f4 [64]
-0.013019317 0.014687435 0.009979192 -0.0067479163 0.008515299 0.008586677 -0.009720641 0.0062457193
0.01964927 0.007429056 0.0016867896 0.004043478 -0.015568865 -0.008751741 -0.009816889 0.006945806
0.008162299 -0.016747957 0.003022009 -0.01082012 -0.009189394 0.007127007 -0.01451185 -0.012507155
0.008540156 -0.015173525 0.010292389 -0.009742089 -0.008570859 -0.006921392 -0.008440882 0.0077648847
0.0058485926 -0.009986297 0.007193138 0.013715716 -0.01073524 -0.0045949398 -0.009473549 0.009356667
-0.0113886725 -0.0058314954 0.004936138 0.0008784518 0.010619671 -0.004650942 0.019809512 0.008485333
0.0016175684 0.004416202 0.010248743 -0.005237235 0.009546514 0.0041348957 0.012579267 -0.015291905
0.008520807 0.007542075 -0.0035831255 0.009292905 -0.020944413 -0.003188333 -0.0064141983 -0.005868555
00000000: f94e 55bc 91a3 703c c47f 233c a01d ddbb
00000010: c183 0b3c 22af 0c3c 5343 1fbc e4a8 cc3b
00000020: 82f7 a03c 706f f33b 4417 dd3a 277f 843b
00000030: 8e14 7fbc 7663 0fbc 04d7 20bc a599 e33b
00000040: 2abb 053c 0333 89bc e60c 463b df46 31bc
00000050: 1d8f 16bc ab89 e93b 1cc3 6dbc cfea 4cbc
00000060: 03ec 0b3c 609a 78bc 69a1 283c 489d 1fbc
00000070: ca6c 0cbc d8cc e2bb a04b 0abc 9370 fe3b
00000080: 8da5 bf3b 919d 23bc 6ab4 eb3b e2b7 603c
00000090: dce2 2fbc 2691 96bb f236 1bbc b54c 193c
000000a0: 8e97 3abc 2116 bfbb 54bf a13b e747 663a
000000b0: 21fe 2d3c ee66 98bb 8f47 a23c 1106 0b3c
000000c0: 9704 d43a cab5 903b 58ea 273c 1d9d abbb
000000d0: fb68 1c3c 057e 873b 4519 4e3c e68a 7abc
000000e0: db9a 0b3c 8323 f73b dfd2 6abb 4541 183c
000000f0: 9e93 abbc 5af3 50bb 322e d2bb 024d c0bb

transformer_encoder.layers.0.linear1.weight f4 [128, 64]
0.050038554 0.001840448 0.08643322 0.059826422 0.012710631 -0.0098699145 0.055628985 -0.10110696
0.09002739 0.017266046 -0.086968176 -0.0692046 -0.15257123 0.031631246 0.07547278 0.014741198
-0.049315196 -0.05108634 -0.079731524 0.1033352 0.14296979 0.11144928 0.05551996 0.12499051
0.14398187 -0.0707481 0.08507641 -0.01775387 -0.11393766 -0.08765393 0.06718446 0.052274793
0.032148864 -0.09212826 -0.11668031 0.0059965802 0.041970745 -0.03045241 0.1390441 -0.0152937295
-0.055168014 0.105635576 -0.062587 0.07771859 -0.102525726 -0.14784043 0.12796178 -0.027880678
-0.034768824 -0.013216042 0.10019534 0.019431544 -0.076231316 0.037380848 -0.011717491 0.10723024
0.08780276 -0.108056925 -0.14416125 -0.07919181 -0.058206383 0.034172364 -0.053485826 0.14198996
-0.028770288 0.12109472 0.092716046 0.017280528 -0.0115969945 0.09059601 0.12079163 -0.027683383
-0.11990101 -0.00817897 -0.038650967 -0.08005388 0.08667004 -0.014631718 0.08290124 0.071959004
0.025054913 0.008874651 -0.05937288 -0.0037165629 0.10258638 -0.08920842 -0.013520604 -0.05821119
-0.010856112 -0.015497591 0.08083322 -0.11073052 0.09060175 -0.073345214 0.06413549 0.019921279
-0.02584577 -0.0029510094 -0.14680369 -0.059180506 0.015719146 0.046037912 0.030101022 -0.028969558
0.0042532873 0.10261795 -0.064535476 -0.13409734 0.02455295 0.043704677 0.09410455 0.045318585
-0.077101715 0.086384214 -0.061361548 0.05119085 0.10110727 -0.028326634 -0.017644208 -0.030269502
-0.040475458 0.041508332 0.070392415 -0.14387207 -0.03168692 -0.02376493 0.08724756 -0.01866867
-0.0790143 -0.014235685 -0.012120045 -0.08179863 0.03874404 0.043822058 0.10088933 -0.08474177
-0.03023057 0.00035775307 0.02383803 0.091397114 -0.08976056 -0.06960558 0.096746586 0.0036284595
-0.0024249058 -0.16474247 0.10935444 0.037227415 0.09661453 0.11039284 0.11870759 0.042843405
-0.055979636 0.03785736 -0.022463348 0.08075314 -0.087393135 -0.072307855 -0.10004069 0.14061776
0.113012426 0.023092266 0.16664188 -0.11191135 -0.025156833 -0.0021922167 0.16531579 0.050914895
0.06946072 0.03307108 -0.12207206 -0.16968347 0.08202803 -0.12901852 -0.1317641 -0.04451329
0.042566057 0.011633921 -0.046700787 0.02554351 -0.12099761 -0.033619344 -0.114323415 0.14884356
0.14919923 0.09132829 -0.17699447 0.08094279 0.054880712 -0.1107986 -0.039150283 0.12425405
0.12462245 -0.050548363 0.016447311 0.01697202 0.006992572 -0.05395382 0.09384942 0.041147593
-0.07902476 -0.10284729 -0.10047892 -0.11161358 -0.09398171 0.13949919 -0.038374923 0.084907636
0.034209393 -0.12799838 0.00317319 -0.014259983 -0.05294881 -0.12474867 0.121781945 -0.020506114
0.05046934 0.08319464 0.024366355 0.06346045 -0.13045913 0.013564968 0.03856776 0.055314522
-0.012423062 -0.08723374 -0.0823998 -0.059829116 -0.07197727 -0.066254444 0.12219054 0.06509198
-0.007814607 -0.004241999 -0.10699207 -0.13252278 0.04229553 0.00859246 -0.037833292 0.08021072
0.043528475 -0.03585528 0.12344209 -0.13365592 0.048628483 -0.051648833 -0.11125686 -0.042021964
0.108513474 -0.0033363746 -0.057106342 0.0789809 -0.049036775 -0.07175928 -0.068750076 0.08726872
00000000: 3af5 4c3d 303b f13a e603 b13d 8d0c 753d
00000010: 4040 503c 6cb5 21bc 38db 633d 2a11 cfbd
00000020: 4860 b83d 8671 8d3c 5f1c b2bd 24bb 8dbd
00000030: a23b 1cbe c48f 013d 7991 9a3d 1185 713c
00000040: bbfe 49bd e93f 51bd 484a a3bd 68a1 d33d
00000050: ac66 123e 853f e43d e668 633d 06fb ff3d
00000060: fc6f 133e 61e4 90bd 8a3c ae3d 9070 91bc
00000070: 2658 e9bd e783 b3bd 0298 893d 181e 563d
00000080: 87ae 033d bead bcbd 16f6 eebd f67e c43b
00000090: 84e9 2b3d 5577 f9bc 9461 0e3e 8d92 7abc
000000a0: dbf7 61bd 7757 d83d 9d2d 80bd ed2a 9f3d
000000b0: 02f9 d1bd 7b63 17be 6a08 033e 0566 e4bc
000000c0: c169 0ebd 1988 58bc 3733 cd3d e72e 9f3c
000000d0: 2a1f 9cbd a91c 193d b8fa 3fbc 879b db3d
000000e0: efd1 b33d f34c ddbd 029f 13be 512f a2bd
000000f0: d169 6ebd 52f8 0b3d f413 5bbd d165 113e
00000100: abaf ebbc 8200 f83d e9e1 bd3d e58f 8d3c
00000110: 5201 3ebc 678a b93d 9a61 f73d 43c8 e2bc
00000120: a98e f5bd 1601 06bc 7a50 1ebd 4af3 a3bd
00000130: 1080 b13d e0b9 6fbc 20c8 a93d 3e5f 933d
00000140: f63f cd3c fc66 113c fa30 73bd 9491 73bb
00000150: cf18 d23d e7b2 b6bd 8685 5dbc db6e 6ebd
00000160: d6dd 31bc 9ce9 7dbc e38b a53d afc6 e2bd
00000170: 698d b93d 0436 96bd 7859 833d f331 a33c
00000180: 82ba d3bc b965 41bb b553 16be 4267 72bd
00000190: 70c5 803c 4092 3c3d 6b96 f63c 9151 edbc
000001a0: 295f 8b3b 5c29 d23d 2d2b 84bd d050 09be
000001b0: 4523 c93c ad03 333d e3b9 c03d fb9f 393d
000001c0: 81e7 9dbd 35ea b03d 3f56 7bbd 7fad 513d
000001d0: 5411 cf3d 420d e8bc 968a 90bc bff7 f7bc
000001e0: 98c9 25bd a404 2a3d e629 903d 3353 13be
000001f0: 25ca 01bd acae c2bc d9ae b23d 0aef 98bc
00000200: 40d2 a1bd ca3c 69bc 2793 46bc 0a86 a7bd
00000210: 12b2 1e3d c27e 333d 119f ce3d 188d adbd
00000220: 1aa6 f7bc ce90 bb39 f947 c33c 692e bb3d
00000230: 62d4 b7bd 5f8d 8ebd 1323 c63d 73cb 6d3b
00000240: 2beb 1ebb 40b2 28be 38f5 df3d c67b 183d
00000250: d7dd c53d a415 e23d f71c f33d 917c 2f3d
00000260: e74a 65bd 5210 1b3d 0e05 b8bc e761 a53d
00000270: 2cfb b2bd 2416 94bd 22e2 ccbd 1afe 0f3e
00000280: 0f73 e73d fe2b bd3c 2ba4 2a3e c731 e5bd
00000290: b415 cebc 4bab 0fbb 8b48 293e 238c 503d
000002a0: 6c41 8e3d 8a75 073d eb00 fabd 81c1 2dbe
000002b0: 50fe a73d 6e1d 04be 2bed 06be 9153 36bd
000002c0: bf59 2e3d 349c 3e3c 5349 3fbd a040 d13c
000002d0: 98cd f7bd 70b4 09bd 6522 eabd 726a 183e
000002e0: afc7 183e 540a bb3d 0a3e 35be 55c5 a53d
000002f0: 99ca 603d 60ea e2bd 0c5c 20bd e878 fe3d
00000300: 0e3a ff3d cd0b 4fbd 83bc 863c e808 8b3c
00000310: f221 e53b aefe 5cbd 2034 c03d 618a 283d
00000320: bcd7 a1bd 9aa1 d2bd e4c7 cdbd a995 e4bd
00000330: 7c79 c0bd e0d8 0e3e 062f 1dbd 0ee4 ad3d
00000340: 261f 0c3d 0212 03be 4bf5 4f3b b4a2 69bc
00000350: dae0 58bd 3b7c ffbd d068 f93d 70fc a7bc
00000360: f0b8 4e3d f461 aa3d f39b c73c 8df7 813d
00000370: 1497 05be 993f 5e3c 3af9 1d3d 7b91 623d
00000380: 198a 4bbc 9aa7 b2bd 3ac1 a8bd 600f 75bd
00000390: d268 93bd 69b0 87bd 093f fa3d f24e 853d
000003a0: d608 00bc 7700 8bbb a91e dbbd 0db4 07be
000003b0: 143e 2d3d 64c7 0c3c 15f7 1abd 8545 a43d
000003c0: ea4a 323d fcdc 12bd 35cf fc3d 19dd 08be
000003d0: a92e 473d ba8d 53bd a3da e3bd 391f 2cbd
000003e0: 503c de3d 14a7 5abb 57e8 69bd bdc0 a13d
000003f0: c9da 48bd 88f6 92bd d7cc 8cbd f1b9 b23d

transformer_encoder.layers.0.linear1.bias f4 [128]
0.0025370694 0.024535201 -0.02437742 0.03507529 -0.09929821 0.100419424 -0.035882004 0.05411476
-0.06816084 -0.035512216 -0.018065711 0.018283062 -0.009825772 0.019353604 -0.040800333 0.060701884
0.029765435 0.030325515 0.0970617 0.09307195 0.06507619 -0.08398499 -0.050479893 0.08832828
0.10804861 -0.047376372 -0.06242787 0.03865421 0.09788366 0.082114175 0.0271286 -0.04822626
0.004542626 -0.05122415 0.06714284 0.13518535 0.060940456 0.07471584 0.09056718 0.08591973
-0.038850896 -0.046884805 -0.119974956 -0.104192704 0.10853373 -0.011741465 0.11752698 -0.027401969
0.07528031 0.07220429 -0.009592317 -0.0017705787 -0.07091437 0.12654729 -0.0123115275 -0.07238027
-0.07109409 -0.11331243 -0.011441877 -0.11848213 0.007759723 -0.044155862 -0.059360333 0.034545973
0.0697547 0.078983285 0.11224777 -0.101437 -0.01955367 0.13373137 0.05976194 -0.09329362
0.08993475 0.037603255 0.07872939 0.116759725 0.08927223 -0.008874704 -0.11016424 0.004657238
-0.017937578 -0.07877543 -0.038026523 -0.06325179 0.08076637 0.02884082 0.067423955 -0.041849066
0.07244307 0.11252503 0.120424986 -0.08863771 0.0636651 0.04014227 0.053288396 0.080013916
0.080040336 0.055131678 0.05502723 0.0860098 -0.062177774 0.007716214 -0.04595086 -0.0711825
-0.04785067 0.108215004 0.0001481335 -0.011187402 -0.100246735 -0.070806436 -0.04995807 0.11573146
0.10676483 -0.10326185 -0.0849615 -0.02291462 0.08719727 -0.09257924 0.03824763 -0.092974275
-0.05690357 0.10704558 0.033036582 0.13402419 0.056254435 0.029810319 0.07425579 0.021525629
00000000: f644 263b 0cfe c83c 28b3 c7bc 1bab 0f3d
00000010: dc5c cbbd b3a8 cd3d 02f9 12bd 70a7 5d3d
00000020: e997 8bbd 4275 11bd 8bfe 93bc 5cc6 953c
00000030: 46fc 20bc 738b 9e3c 401e 27bd 8aa2 783d
00000040: a4d6 f33c 376d f83c 49c8 c63d 829c be3d
00000050: aa46 853d 5300 acbd 01c4 4ebd 75e5 b43d
00000060: 9748 dd3d ba0d 42bd 5eb4 7fbd e053 1e3d
00000070: 3a77 c83d 7a2b a83d cc3c de3c e688 45bd
00000080: 4fda 943b 6ad0 51bd 2f82 893d 076e 0a3e
00000090: b39c 793d 9e04 993d 497b b93d aff6 af3d
000000a0: 1e22 1fbd 480a 40bd 6eb5 f5bd fc62 d5bd
000000b0: ef46 de3d 465f 40bc fcb1 f03d 187a e0bc
000000c0: 902c 9a3d d8df 933d 1829 1dbc c312 e8ba
000000d0: 8e3b 91bd 9d95 013e 4ab6 49bc 1b3c 94bd
000000e0: c799 91bd 5910 e8bd b676 3bbc c2a6 f2bd
000000f0: 4645 fe3b c7dc 34bd d223 73bd 1480 0d3d
00000100: 8ddb 8e3d fdc1 a13d 29e2 e53d 34be cfbd
00000110: 052f a0bc e0f0 083e f0c8 743d ba10 bfbd
00000120: b62f b83d df05 1a3d e03c a13d b91f ef3d
00000130: 5cd4 b63d 3567 11bc ca9d e1bd be9b 983b
00000140: d4f1 92bc 0355 a1bd b3c1 1bbd 288a 81bd
00000150: d768 a53d 9543 ec3c 9215 8a3d ed69 2bbd
00000160: 085d 943d 8673 e63d 60a1 f63d b087 b5bd
00000170: d962 823d 396c 243d ef44 5a3d 56de a33d
00000180: 30ec a33d c1d1 613d 3c64 613d e825 b03d
00000190: 1fae 7ebd 4bd8 fc3b f836 3cbd 21c8 91bd
000001a0: 10ff 43bd d49f dd3d 4954 1b39 5d4b 37bc
000001b0: 294e cdbd f702 91bd d5a0 4cbd 9e04 ed3d
000001c0: 85a7 da3d f37a d3bd 4b00 aebd 71b7 bbbc
000001d0: 7b94 b23d 2f9a bdbd 8ca9 1c3d 4c69 bebd
000001e0: b813 69bd b73a db3d 5e51 073d a33d 093e
000001f0: 0d6b 663d c534 f43c 6b13 983d 8456 b03c

transformer_encoder.layers.0.linear2.weight f4 [64, 128]
0.039342 -0.06310081 0.054585323 -0.09236032 -0.028798867 -0.026167799 0.07053052 -0.03694148
-0.021469107 0.07154158 -0.07413262 0.013488679 -0.08079645 0.0590057 -0.025844553 0.009530933
0.071649775 -0.032848552 -0.09543972 -0.068781145 -0.108985566 -0.0335516 -0.066841386 0.0077838344
-0.009880752 0.018348677 0.029714065 -0.0348839 0.06874127 -0.016936967 0.059825182 -0.007926217
0.043816324 0.016729932 -0.036681015 -0.059554797 0.013693653 -0.02969507 0.09335943 -0.019429246
-0.031697053 -0.0022844912 -0.07335898 -0.08946339 -0.0370574 0.052522857 -0.018574374 -0.06561585
0.060120482 0.0055698366 0.008955868 0.03215168 -0.011891126 8.4786756e-05 0.11231037 -0.008497546
-0.079764284 -0.02421485 -0.07670587 0.01726077 0.038923312 -0.055797778 0.032191932 0.024460973
0.012775205 0.048477445 0.060760956 -0.05445047 0.028010726 0.05957695 -0.020819554 0.017950075
0.02067938 -0.03553853 -0.09381573 0.10759653 0.041525234 -0.036878917 -0.03004303 -0.055772163
-0.040840257 0.05742109 -0.048491284 -0.027879698 -0.05519418 -0.04066128 -0.08914609 -0.012098574
-0.054159544 0.068091415 -0.07900698 0.021225337 -0.07690293 0.035571396 -0.017706329 -0.08532931
0.046137366 0.062486928 0.06714219 0.018162131 -0.10143213 0.011693329 0.04492759 -0.05378629
0.01640129 -0.043154012 0.010364218 -0.043276466 -0.06310123 -0.04750745 0.024288079 -0.0021432755
0.033772755 -0.076772176 0.023051567 -0.022580935 -0.021675413 -0.05984601 -0.07263633 -0.034079425
-0.032099478 -0.021578927 -0.083771504 0.04309469 -0.08819657 6.607131e-05 -0.07854313 0.06931469
-0.026148062 -0.0046918485 -0.12481503 0.054978 0.043183483 -0.08086381 -0.03194197 -0.06622886
0.078403294 0.087636426 0.056498412 -0.00023348125 -0.015114778 -0.019145885 -0.065847784 -0.06615849
0.05596769 -0.04501725 -0.0037854307 0.013163442 -0.039772656 -0.048727795 0.10343204 0.03459167
-0.006037164 0.094938695 0.0558057 0.019337907 0.09199412 0.032895874 0.10422649 -0.038518175
0.057377186 0.09135103 -0.027507609 0.013423381 0.03909451 0.049645767 0.006114501 -0.004662163
0.01423363 -0.075176045 0.047866896 0.026969625 0.063683465 -0.0073149716 0.07289558 0.004650688
0.033781182 -0.062144093 -0.056385353 -0.0387519 -0.11889264 -0.007139294 -0.101644106 0.026531164
-0.0076655564 -0.07603571 -0.029320365 0.058849018 -0.074934825 0.09073931 -0.018405102 0.008350032
0.055258818 -0.04850184 -0.04391307 0.08923001 0.009491905 0.05513468 0.03390312 -0.09997583
0.00044486678 -0.0051679364 0.07656841 0.012182043 0.037947923 0.028525496 -0.06500461 -0.03314217
-0.017842118 0.08170509 0.04099196 -0.14557494 -0.13986318 -0.01399744 -0.026706608 0.032554172
-0.0241185 0.015481955 -0.054037906 -0.02272076 0.016235404 -0.0869308 -0.014215558 -0.07192375
0.079405315 0.026349222 -0.025050968 -0.03032303 0.082150675 -0.008633906 -0.06164793 -0.08355487
-0.066983394 -0.007239123 0.05440853 0.09197817 -0.03086402 -0.04139924 0.03854624 -0.016723923
-0.040593293 -0.02151093 -0.060688183 -0.05046509 -0.013943337 0.06759274 -0.024168612 0.02294386
0.035687983 0.019670136 -0.03908988 -0.056434438 -0.02994833 -0.080143265 0.050883103 -0.00822177
00000000: 1425 213d ff3a 81bd dc94 5f3d 6827 bdbd
00000010: 9aeb ebbc da5d d6bc 4e72 903d f34f 17bd
00000020: fbdf afbc 6484 923d d8d2 97bd 9fff 5c3c
00000030: 9c78 a5bd f6af 713d f5b7 d3bc a127 1c3c
00000040: 1ebd 923d 348c 06bd e675 c3bd 21dd 8cbd
00000050: d333 dfbd 676d 09bd 23e4 88bd 890f ff3b
00000060: e1e2 21bc f74f 963c e96a f33c 6ce2 0ebd
00000070: 39c8 8c3d 65bf 8abc 400b 753d f7dc 01bc
00000080: bf78 333d 360d 893c d53e 16bd bbef 73bd
00000090: 585b 603c 1343 f3bc 3b33 bf3d 152a 9fbc
000000a0: c5d4 01bd 67b7 15bb 3c3d 96bd 9538 b7bd
000000b0: 80c9 17bd 3522 573d 4929 98bc 9a61 86bd
000000c0: e540 763d 2d83 b63b a2bb 123c 7bb1 033d
000000d0: ffd2 42bc 8bcf b138 fb02 e63d 4b39 0bbc
000000e0: 755b a3bd 395e c6bc f817 9dbd 7566 8d3c
000000f0: 0d6e 1f3d 368c 64bd b0db 033d 6162 c83c
00000100: 184f 513c 4990 463d 7be0 783d 7507 5fbd
00000110: c076 e53c f606 743d c58d aabc 090c 933c
00000120: ce67 a93c da90 11bd 7622 c0bd 925b dc3d
00000130: 5d16 2a3d 590e 17bd cd1c f6bc 5a71 64bd
00000140: 1d48 27bd 6032 6b3d cc9e 46bd f763 e4bc
00000150: 4b13 62bd 718c 26bd 3a92 b6bd 1939 46bc
00000160: 66d6 5dbd 8373 8b3d 69ce a1bd c2e0 ad3c
00000170: 497f 9dbd 50b3 113d dd0c 91bc 22c1 aebd
00000180: 89fa 3c3d 4bf2 7f3d d881 893d c0c8 943c
00000190: a6bb cfbd 6095 3f3c fe05 383d 034f 5cbd
000001a0: 005c 863c 43c2 30bd aece 293c aa42 31bd
000001b0: 383b 81bd 2c97 42bd cbf7 c63c 3276 0cbb
000001c0: 4d55 0a3d bb3a 9dbd a4d6 bc3c a7fb b8bc
000001d0: a390 b1bc 1721 75bd 5bc2 94bd de96 0bbd
000001e0: be7a 03bd 4ac6 b0bc 6590 abbd 0f84 303d
000001f0: 67a0 b4bd c48f 8a38 38db a0bd dcf4 8d3d
00000200: 7634 d6bc 14be 99bb 069f ffbd 9c30 613d
00000210: 2ae1 303d ed9b a5bd 95d5 02bd ffa2 87bd
00000220: e891 a03d ba7a b33d e16a 673d a5d2 74b9
00000230: f9a3 77bc d5d7 9cbc 34db 86bd 1a7e 87bd
00000240: 603e 653d 0264 38bd fd14 78bb 7aab 573c
00000250: a7e8 22bd cc96 47bd 2dd4 d33d ffaf 0d3d
00000260: 67d3 c5bb 386f c23d 8594 643d 886a 9e3c
00000270: 6a67 bc3d d3bd 063d b374 d53d 3cc5 1dbd
00000280: 5704 6b3d 4016 bb3d a357 e1bc beed 5b3c
00000290: 9121 203d 5c59 4b3d 275c c83b 0fc5 98bb
000002a0: 2c34 693c e6f5 99bd 1410 443d 67ef dc3c
000002b0: 7a6c 823d 6eb2 efbb 474a 953d cc64 983b
000002c0: 235e 0a3d ce8a 7ebd 54f4 66bd 50ba 1ebd
000002d0: fc7d f3bd bdf0 e9bb c92a d0bd e257 d93c
000002e0: 592f fbbb 9cb8 9bbd 4331 f0bc ab0b 713d
000002f0: 6e77 99bd 88d5 b93d 4cc6 96bc 93ce 083c
00000300: 1257 623d dea9 46bd 31de 33bd 39be b63d
00000310: ef83 1b3c e7d4 613d ffdd 0a3d 21c0 ccbd
00000320: 023d e939 cb57 a9bb e6cf 9c3d 3197 473c
00000330: 486f 1b3d 4dae e93c 2321 85bd 16c0 07bd
00000340: a229 92bc 0055 a73d 2fe7 273d 9911 15be
00000350: 4b38 0fbe 8555 65bc d1c7 dabc 8657 053d
00000360: 2994 c5bc 07a8 7d3c da56 5dbd e320 babc
00000370: 1c00 853c c608 b2bd 5fe8 68bc c24c 93bd
00000380: 419f a23d 53da d73c b037 cdbc 0168 f8bc
00000390: 9d3e a83d 3a75 0dbc 8a82 7cbd d11e abbd
000003a0: 972e 89bd 2a36 edbb 7bdb 5e3d 0d5f bc3d
000003b0: 8bd6 fcbc 4092 29bd aae2 1d3d 9c00 89bc
000003c0: 2745 26bd b137 b0bc 2c94 78bd 7bb4 4ebd
000003d0: 9872 64bc 106e 8a3d 41fd c5bc c3f4 bb3c
000003e0: 902d 123d 4423 a13c b61c 20bd cc27 67bd
000003f0: 3356 f5bc 2722 a4bd cd6a 503d 9ab4 06bc

transformer_encoder.layers.0.linear2.bias f4 [64]
-0.005650891 -0.016857253 -0.040796697 -0.077429645 -0.043934062 0.04596017 0.044409897 -0.03679361
0.08242382 -0.07236329 0.08454959 -0.037485838 -0.0041822693 -0.006842209 -0.011549377 0.040783357
0.022935068 -0.06291394 -0.08316955 -0.08877358 -0.0014768926 -0.0026723505 -0.037420828 0.0692455
0.08107506 -0.10088264 -0.045294467 -0.021163516 -0.08611427 0.0018598422 -0.0032868662 -0.07201236
-0.03105392 -0.055177525 -0.001498432 0.013050086 0.026835877 -0.059208896 0.024950357 -0.072743796
0.035097003 0.07738654 -0.013826345 0.05413109 0.096756876 0.024255728 -0.05777842 0.0900786
0.021976374 -0.08100181 -0.04943947 0.07486933 0.045474004 0.052874748 0.045108084 -0.023701977
-0.073248945 0.03811046 -0.065266676 0.06514242 -0.10142756 0.08078226 -0.07023157 -0.07596982
00000000: 1c2b b9bb 3918 8abc 701a 27bd 6f93 9ebd
00000010: 34f4 33bd bb40 3c3d 27e7 353d e5b4 16bd
00000020: d2cd a83d 3433 94bd 5628 ad3d c08a 19bd
00000030: 6b0b 89bb 9c34 e0bb 9939 3dbc 730c 273d
00000040: 53e2 bb3c 06d9 80bd cc54 aabd ecce b5bd
00000050: 4b94 c1ba 9a22 2fbb 9546 19bd 96d0 8d3d
00000060: ae0a a63d 8f9b cebd b186 39bd 1c5f adbc
00000070: ae5c b0bd f3c5 f33a 7768 57bb 377b 93bd
00000080: ca64 febc d401 62bd 0967 c4ba 07d0 553c
00000090: ead6 db3c 0785 72bd b164 cc3c b3fa 94bd
000000a0: e0c1 0f3d d67c 9e3d e587 62bc 90b8 5d3d
000000b0: 7828 c63d f3b3 c63c 11a9 6cbd 217b b83d
000000c0: cc07 b43c 47e4 a5bd 0b81 4abd 1755 993d
000000d0: f342 3a3d 3193 583d 41c3 383d a62a c2bc
000000e0: 8b03 96bd b719 1c3d 89aa 85bd 6469 853d
000000f0: 41b9 cfbd 2b71 a53d 92d5 8fbd 1196 9bbd

transformer_encoder.layers.0.norm1.weight f4 [64]
0.98574597 1.0048223 0.9866581 0.9793568 1.0245467 1.027896 1.0100265 1.0371825
0.98140067 1.0321563 0.9925012 0.9943147 0.9930079 0.9694623 1.0016195 0.99639547
0.99870485 1.0384012 1.0061046 0.99652654 1.0248985 0.98439085 1.003184 0.9877234
1.0061744 0.9825503 1.0006275 1.0156132 1.0042833 1.0039942 0.9852003 1.0215183
1.0091655 1.0448605 0.9707748 0.9824727 0.9941562 1.0136307 0.98566836 1.012724
0.97778744 0.990687 1.0118623 0.9805889 1.0036613 1.0305625 1.0200387 0.9911769
1.0023454 1.0132328 0.9756374 1.0537567 1.0072572 1.0145789 1.0147551 0.9919886
1.0201789 1.0111417 0.99592465 0.9882852 0.9952393 1.0033668 1.0063034 0.99832535
00000000: d959 7c3f 049e 803f a095 7c3f 21b7 7a3f
00000010: 5924 833f 1992 833f 8c48 813f 65c2 843f
00000020: 133d 7b3f b31d 843f 8f14 7e3f 688b 7e3f
00000030: c435 7e3f ae2e 783f 1135 803f c613 7f3f
00000040: 1fab 7f3f 55ea 843f 09c8 803f 5d1c 7f3f
00000050: e02f 833f 0a01 7c3f 5568 803f 71db 7c3f
00000060: 53ca 803f 6b88 7b3f 9014 803f 9dff 813f
00000070: 5b8c 803f e282 803f 1636 7c3f 1dc1 823f
00000080: 562c 813f fdbd 853f b384 783f 5583 7b3f
00000090: 0581 7e3f a7be 813f c354 7c3f f1a0 813f
000000a0: 4750 7a3f aa9d 7d3f b484 813f e007 7b3f
000000b0: f977 803f 79e9 833f a190 823f c5bd 7d3f
000000c0: db4c 803f 9db1 813f 5fc3 793f 80e1 863f
000000d0: ceed 803f b9dd 813f 7fe3 813f f7f2 7d3f
000000e0: 3995 823f 176d 813f ebf4 7e3f 4200 7d3f
000000f0: 01c8 7e3f 536e 803f 8dce 803f 4092 7f3f

transformer_encoder.layers.0.norm1.bias f4 [64]
-0.01564326 0.01677832 0.0126399165 -0.010307676 0.021955363 0.009334462 -0.009498222 -0.0045062588
0.020426294 0.013350098 0.0063817166 0.0005482211 -0.029380366 0.0020633803 -0.0057162824 0.0152973365
0.011607163 -0.0024416316 0.007534018 -0.010110025 0.016226768 0.012432003 -0.022047184 -0.014952955
0.009942355 -0.022571236 0.011480166 -0.0072312397 -0.008749585 -0.0107649695 -0.012346537 -0.00750803
0.005937453 -0.0152086085 0.010195349 0.02637177 -0.0111585 -0.01638269 -0.009264721 -0.0001175626
-0.022055177 -0.009291112 0.0006926479 0.007022813 0.015909668 -0.008636539 0.01705702 0.010493951
-0.000118940916 0.0033072217 0.010201394 -0.011450667 0.009895736 0.009931466 0.0012728492 -0.016457485
0.008821011 0.014044915 -0.0076463693 0.009685511 -0.035339933 -0.0019693084 -0.009503649 -0.008314064
00000000: 4b26 80bc b072 893c a717 4f3c 87e1 28bc
00000010: bcdb b33c 92ef 183c 6e9e 1bbc 3da9 93bb
00000020: 0b55 a73c 5fba 5a3c b81d d13b 7fb6 0f3a
00000030: 18af f0bc c739 073b a74f bbbb aea1 7a3c
00000040: f82b 3e3c c803 20bb ecdf f63b 85a4 25bc
00000050: 00ee 843c 9aaf 4b3c 4c9c b4bc 3dfd 74bc
00000060: 42e5 223c 50e7 b8bc 4e17 3c3c 09f4 ecbb
00000070: 6b5a 0fbc 8e5f 30bc 2149 4abc ec05 f6bb
00000080: f78e c23b 872d 79bc 650a 273c 9c09 d83c
00000090: 24d2 36bc fe34 86bc 0ecb 17bc f18b f6b8
000000a0: 0fad b4bc c039 18bc d092 353a a01f e63b
000000b0: fe54 823c 4580 0dbc 2abb 8b3c d2ee 2b3c
000000c0: eb6f f9b8 f9bd 583b bf23 273c 949b 3bbc
000000d0: ba21 223c 96b7 223c bbd5 a63a d9d1 86bc
000000e0: 0086 103c a51c 663c 658e fabb faaf 1e3c
000000f0: 9bc0 10bd 830f 01bb 31b5 1bbc b637 08bc

transformer_encoder.layers.0.norm2.weight f4 [64]
0.989431 1.0086697 0.9876733 0.98618674 1.0373266 1.0316595 1.0090469 1.0317904
0.97966325 1.0593897 0.99112904 0.9917333 0.9786677 0.96753097 1.0246661 0.9921914
1.0053138 1.028191 1.0321529 1.0002558 1.0168334 0.9773597 0.99775195 0.98859787
0.9763788 0.9848132 0.99801224 1.0251743 1.004561 0.9928449 0.99666154 1.0221307
1.0077686 1.0417964 0.97473735 0.9813357 1.0152256 1.0057055 0.9816406 1.005803
0.98647183 1.0322111 1.0142274 0.98837775 0.99280465 1.0167731 1.0112404 1.0040708
0.999824 1.0176327 0.9816521 1.0458684 1.0054487 1.0057671 1.0227368 0.9960469
1.0176303 1.0169805 0.9989566 0.9839963 0.9889828 1.0025331 1.0110147 1.0000641
00000000: 5a4b 7d3f 171c 813f 28d8 7c3f bc76 7c3f
00000010: 1ec7 843f 6b0d 843f 7328 813f b511 843f
00000020: 36cb 7a3f 159a 873f a2ba 7d3f 3ce2 7d3f
00000030: f789 7a3f 1cb0 773f 4228 833f 4100 7e3f
00000040: 1fae 803f c39b 833f 961d 843f 6208 803f
00000050: 9927 823f 3f34 7a3f ac6c 7f3f c014 7d3f
00000060: f6f3 793f b81c 7c3f bb7d 7f3f e938 833f
00000070: 7495 803f 152b 7e3f 3625 7f3f 2ed5 823f
00000080: 90fe 803f 9659 853f 6388 793f d138 7b3f
00000090: eaf2 813f f5ba 803f cc4c 7b3f 27be 803f
000000a0: 6b89 7c3f 7e1f 843f 34d2 813f 5306 7d3f
000000b0: 7228 7e3f 9f25 823f 5370 813f 6485 803f
000000c0: 77f4 7f3f ca41 823f 8d4d 7b3f 04df 853f
000000d0: 8bb2 803f fabc 803f 0ae9 823f eefc 7e3f
000000e0: b641 823f 6b2c 823f 9fbb 7f3f 2ee7 7b3f
000000f0: fa2d 7d3f 0153 803f ee68 813f 1a02 803f
