Combat Sports Automation/models/transformer_model.pth (torch, 282595 bytes, 28 tensors)

embedding.weight f4 [64, 6]
-0.3352429 0.072508365 -0.14961216 0.2132206 -0.060519636 -0.117756136 -0.10075207 -0.18135689
-0.33724585 -0.3128347 -0.1452438 0.14965816 0.01849376 -0.36943015 -0.27489606 -0.25234777
-0.052619487 -0.39403298 0.09542129 -0.29609707 -0.0779297 -0.29399455 0.07494069 0.31622577
-0.1084495 -0.13341591 0.16325665 0.39781114 -0.03782964 0.29438844 -0.29720318 -0.3099503
-0.3982543 -0.12785257 -0.33228377 0.05984942 0.057985723 -0.3038537 -0.41329765 0.086086705
-0.13269812 0.1237493 -0.041449443 0.3668376 -0.4173608 0.070578195 -0.01230708 0.14777075
0.18286744 0.12845656 -0.021579612 -0.0024442682 0.1940706 -0.2818819 0.032287702 0.1766349
0.31668246 -0.3547754 -0.23709875 0.058152936 0.1518718 0.30879968 -0.27597997 0.34049603
0.14276773 -0.032081243 -0.15374507 -0.29117137 -0.39894834 -0.030644214 0.28116444 0.19715686
0.19807492 0.4156763 -0.3695532 0.37056142 0.34685865 -0.27075332 0.3786804 -0.22947304
-0.42867658 -0.030806566 -0.11733327 -0.39045608 -0.27430168 0.24481522 0.11494636 0.045124967
0.13762847 -0.38754702 -0.36144066 -0.17294846 -0.05482764 -0.16456671 0.3049621 0.1395729
-0.23514257 -0.110490195 0.38498828 0.01573237 0.30720288 0.31063068 -0.16244298 -0.39012593
0.36074567 -0.19081727 0.23553604 -0.12085647 0.14152434 0.0743684 -0.037738357 0.41994372
-0.25838652 0.06587509 -0.0034215748 0.22852048 0.30637574 0.13314573 -0.19305247 0.1997422
-0.34070408 0.16401294 -0.15303677 -0.1624789 0.0673038 -0.33348843 0.14922588 -0.14098291
-0.15113378 -0.097530484 -0.017025588 0.11397953 -0.10247663 0.34061718 0.21555005 0.11487534
0.084222496 0.23443611 0.16566196 0.13881166 -0.24232262 0.33379126 0.2029185 -0.11521908
-0.31248003 0.3204445 0.24760376 -0.14597808 -0.30925524 0.38695347 0.10182572 -0.27776483
0.380232 0.2595709 0.27970523 -0.3343155 -0.3069609 -0.31719434 0.06521664 -0.19193676
-0.3103617 0.35786998 0.0030284782 -0.20335262 0.27909023 0.22051282 0.29045963 -0.03195117
0.41491747 0.22107634 -0.25694004 0.09285233 -0.21522024 -0.12918791 0.07691915 -0.3359164
-0.3329819 0.10878616 -0.12839006 0.24838708 -0.22047527 0.12909204 -0.027572945 -0.22159871
-0.04079535 0.17147678 -0.119514324 0.14572673 -0.088177085 -0.16789865 -0.026362933 -0.11636461
0.017829593 0.13964434 0.032770827 -0.01749423 0.2892145 0.03395096 -0.302016 0.2728849
-0.3329316 0.0428762 0.28674546 -0.11323416 -0.3202469 -0.33968136 -0.29048717 0.2540785
-0.07244182 -0.09560685 0.097724825 -0.28787783 0.23653218 0.06300342 0.21937692 0.27506685
-0.24797009 -0.27220243 0.1891832 -0.19565369 0.26993215 -0.19112636 0.07426415 -0.026207263
-0.07725872 -0.102391735 -0.27092102 -0.022903627 -0.29283062 0.13677086 0.17628022 -0.014600101
0.4119777 -0.24971838 0.2526565 0.3747649 -0.3070818 -0.41967532 0.07209649 -0.019831616
-0.11265539 0.029191375 -0.11260666 0.43547395 -0.12068792 -0.210863 0.35800943 -0.122939505
-0.1369312 0.29946813 -0.39384007 0.37466788 0.099835284 -0.07388891 -0.15296589 0.115752436
00000000: f5a4 abbe 447f 943d ee33 19be 8056 5a3e
00000010: 70e3 77bd 212a f1bd 1a57 cebd 9fb5 39be
00000020: 7dab acbe df2b a0be caba 14be fd3f 193e
00000030: 3a80 973c f325 bdbe 2dbf 8cbe ba33 81be
00000040: 8887 57bd b1be c9be 3d6c c33d 099a 97be
00000050: 9b99 9fbd 7486 96be 817a 993d 58e8 a13e
00000060: c51a debd 2e9e 08be c02c 273e e7ad cb3e
00000070: 41f3 1abd 15ba 963e 042b 98be ceb1 9ebe
00000080: fde7 cbbe c9eb 02be 1921 aabe aa24 753d
00000090: 7082 6d3d b692 9bbe c09b d3be 3a4e b03d
000000a0: 04e2 07be 4670 fd3d e4c6 29bd 23d2 bb3e
000000b0: 51b0 d5be 4d8b 903d a3a3 49bc 3751 173e
000000c0: 9a41 3b3e 1e8a 033e bac7 b0bc 0430 20bb
000000d0: 72ba 463e d352 90be 1c40 043d c7df 343e
000000e0: 3424 a23e 1fa5 b5be 04ca 72be c631 6e3d
000000f0: 4884 1b3e fe1a 9e3e 3f4d 8dbe 7f55 ae3e
00000100: b431 123e 9f67 03bd 596f 1dbe 6a14 95be
00000110: f542 ccbe 9309 fbbc c9f4 8f3e 7de3 493e
00000120: 27d4 4a3e 86d3 d43e 1436 bdbe 3aba bd3e
00000130: 7597 b13e 2ea0 8abe 66e2 c13e fbfa 6abe
00000140: 7f7b dbbe 0d5e fcbc 6d4c f0bd dce9 c7be
00000150: 4571 8cbe d7b0 7a3e ff68 eb3d f5d4 383d
00000160: 7aee 0c3e 906c c6be c00e b9be 6719 31be
00000170: f392 60bd 2d84 28be fe23 9c3e 33ec 0e3e
00000180: 37c9 70be af48 e2bd 2f1d c53e 2ce1 803c
00000190: b249 9d3e fc0a 9f3e 7457 26be 96be c7be
000001a0: a8b3 b83e 9a65 43be 5c30 713e 9983 f7bd
000001b0: c2eb 103e 764e 983d 8993 1abd dd02 d73e
000001c0: 3d4b 84be 85e9 863d 803c 60bb 4601 6a3e
000001d0: 48dd 9c3e 5b57 083e 8caf 45be 3889 4c3e
000001e0: c470 aebe 02f3 273e acb5 1cbe de60 26be
000001f0: 93d6 893d ffbe aabe abce 183e d35d 10be
00000200: d0c2 1abe 10be c7bd 3f79 8bbc 1a6e e93d
00000210: 44df d1bd 6065 ae3e 27b9 5c3e c343 eb3d
00000220: d87c ac3d 0510 703e 4aa3 293e a524 0e3e
00000230: 6c23 78be b0e6 aa3e dec9 4f3e fbf7 ebbd
00000240: 62fd 9fbe 4d11 a43e d78b 7d3e 477b 15be
00000250: b456 9ebe c41e c63e 018a d03d 3137 8ebe
00000260: c5ad c23e 7ae6 843e 8635 8f3e 672b abbe
00000270: fb29 9dbe 4c67 a2be 4d90 853d 128b 44be
00000280: bbe7 9ebe bc3a b73e 6f79 463b ab3b 50be
00000290: eae4 8e3e 1dce 613e 20b7 943e 3bdf 02bd
000002a0: 1070 d43e d661 623e a58d 83be 5d29 be3d
000002b0: b262 5cbe d649 04be ca87 9d3d 3cfd abbe
000002c0: 9b7c aabe 47cb de3d af78 03be 2f59 7e3e
000002d0: 45c4 61be b430 043e a8e0 e1bc c6ea 62be
000002e0: 0619 27bd 9c97 2f3e edc3 f4bd 6339 153e
000002f0: 3096 b4bd a0ed 2bbe 14f7 d7bc 9250 eebd
00000300: 5e0f 923c edfe 0e3e b43a 063d 0f50 8fbc
00000310: ec13 943e 2910 0b3d d7a1 9abe 92b7 8b3e
00000320: 0376 aabe f49e 2f3d 4dd0 923e 50e7 e7bd
00000330: 67f7 a3be b7ea adbe bcba 94be 9416 823e
00000340: 605c 94bd 86cd c3bd f423 c83d b964 93be
00000350: 7e35 723e f007 813d 58a4 603e 90d5 8c3e
00000360: dfeb 7dbe 1e5e 8bbe 3eb9 413e 7159 48be
00000370: 8c34 8a3e a1b6 43be cd17 983d 9db0 d6bc
00000380: d239 9ebd c2b2 d1bd 29b6 8abe 63a0 bbbc
00000390: e5ed 95be a90d 0c3e cd82 343e 4335 6fbc
000003a0: beee d23e 2db6 7fbe 315c 813e 2fe1 bf3e
000003b0: d339 9dbe afdf d6be 53a7 933d ea75 a2bc
000003c0: deb7 e6bd c022 ef3c 529e e6bd 71f6 de3e
000003d0: 3a2b f7bd 78ec 57be 034d b73e b5c7 fbbd
000003e0: b137 0cbe e353 993e 68a5 c9be 78d4 bf3e
000003f0: 7176 cc3d 1253 97bd 17a3 1cbe 9d0f ed3d

embedding.bias f4 [64]
-0.18299231 -0.37319756 0.2704281 0.23002367 -0.10400937 -0.16234677 -0.17419067 -0.07103907
0.13482764 -0.40119565 -0.16325274 -0.23486616 -0.11699949 -0.21513912 0.11245364 0.20114192
-0.27364814 -0.049306516 -0.18324323 0.01228082 0.2033719 -0.056655765 -0.36435807 0.18821475
0.31564173 -0.05395377 -0.2852238 0.26039582 -0.14858095 0.18582599 0.34326538 0.23221338
0.31624418 -0.12272869 0.15489623 -0.18273419 -0.34669474 0.31528306 -0.025356442 0.12124597
0.2471703 -0.04966809 -0.26127097 -0.084692605 0.260069 -0.13615191 0.3481282 0.25287437
0.24624154 -0.050879933 -0.23163947 0.032037605 0.32343566 0.05896052 0.21604194 -0.067762606
0.2934977 0.33460394 0.19503267 -0.34294143 -0.096793264 0.35281932 0.124247335 0.29837874
00000000: 5662 3bbe c013 bfbe 8d75 8a3e 538b 6b3e
00000010: dd02 d5bd 3b3e 26be 0a5f 32be ef7c 91bd
00000020: 4210 0a3e 8469 cdbe ba2b 27be c180 70be
00000030: 6e9d efbd 6e4d 5cbe 184e e63d 26f8 4d3e
00000040: 9c1b 8cbe a1f5 49bd 1da4 3bbe 7e35 493c
00000050: b940 503e e00f 68bd 248d babe 5ebb 403e
00000060: cb9b a13e a1fe 5cbd db08 92be 9a52 853e
00000070: 9b25 18be 2b49 3e3e 7bc0 af3e 58c9 6d3e
00000080: c2ea a13e 2e59 fbbd 1e9d 1e3e ac1e 3bbe
00000090: f981 b1be c86c a13e 50b8 cfbc cf4f f83d
000000a0: 361a 7d3e c470 4bbd 4fc5 85be 5173 adbd
000000b0: c427 853e 686b 0bbe dc3d b23e c078 813e
000000c0: be26 7c3e 7a67 50bd e632 6dbe dd39 033d
000000d0: 5c99 a53e 9680 713d 193a 5d3e 1fc7 8abd
000000e0: 5545 963e 3551 ab3e a5b6 473e 0596 afbe
000000f0: 8c3b c6bd bca4 b43e 6375 fe3d 19c5 983e

transformer_encoder.layers.0.self_attn.in_proj_weight f4 [192, 64]
0.15343848 0.11550579 0.1248032 -0.11488921 -0.10048178 -0.02987448 0.07919993 -0.09236635
-0.09466692 0.15267062 -0.04154065 -0.01863748 -0.030240815 0.07709732 0.014149042 -0.030732231
0.0658441 -0.04779883 0.15479071 0.03997036 0.12786582 -0.023117766 -0.12753014 0.084711544
-0.09642121 0.027729053 0.011998748 0.08834871 -0.14078274 0.0021810092 -0.023488304 -0.16349807
0.12594041 -0.15736274 -0.043387473 0.12674347 -0.0005453035 0.13828436 0.110060565 -0.085095294
-0.005644513 -0.08697234 0.11771854 0.16687399 0.043899447 -0.017822796 -0.0747199 0.0010195946
-0.0015461787 0.079657204 0.033460435 0.055856247 -0.11505414 -0.107394524 0.020135274 -0.13123791
-0.111816585 -0.03281601 -0.013642524 0.021060651 0.013528676 -0.0067193005 -0.036068927 -0.030012053
0.07087877 0.10994184 -0.017716423 -0.13717505 -0.15939978 -0.103158206 -0.137856 -0.040983275
0.06469197 0.03750606 0.15126267 0.0783504 -0.061620105 -0.08066026 0.0695354 0.08724134
-0.09448859 -0.13242884 -0.046205506 0.09511989 0.03785602 -0.020393068 0.015586462 -0.017099252
-0.0317341 0.07355289 -0.09005035 0.14834774 -0.094944194 0.07373473 -0.09437713 0.038252547
-0.097456925 0.07889387 -0.04901927 0.115104504 0.009305805 -0.06256082 -0.005574652 0.06253895
0.064904936 0.04200102 0.087953106 -0.07985602 -0.07966993 -0.09519715 0.16492577 0.06778147
-0.006549446 0.07719227 0.11280685 0.09927078 0.09332803 0.07163106 -0.040096946 -0.1130124
0.11593371 0.04161908 -0.08130926 0.047938112 0.00037304818 0.00404791 0.07827831 0.14872615
-0.1303454 0.07753001 -0.07439217 0.12425217 -0.017501397 -0.08197449 0.054075744 0.03556592
0.090720214 0.008351468 -0.060428374 -0.111777976 0.11740642 -0.14791039 -0.10698649 -0.0829199
-0.08953899 -0.13664469 0.010076594 -0.107047565 -0.11985736 0.11030998 0.16290592 0.09481966
0.038963247 0.035261467 -0.0982115 0.017991675 -0.085046925 -0.13093998 0.14376582 0.020397712
0.095634125 0.051220458 0.01609507 -0.07568974 0.073546275 -0.0030814293 -0.013716323 -0.091422826
0.079641715 0.09635428 -0.09603655 0.02042849 0.016371641 0.027609652 -0.13864608 -0.04529389
0.047756355 0.0644994 0.13149679 -0.04366083 -0.03851239 -0.14014368 -0.064168185 0.073601454
0.018563967 0.0039865114 -0.10002941 0.12202769 -0.08316387 0.057164624 -0.10978421 -0.1589202
-0.074409425 -0.037938267 -0.0032383453 0.11244555 0.09088519 -0.089692555 0.096585594 -0.009489624
0.15716785 -0.049596973 0.122218385 -0.078760065 -0.10360458 0.037525427 0.018200831 0.03628837
0.0254005 0.10153487 -0.1329708 -0.086527325 -0.006253463 -0.033706173 -0.009294829 -0.05791509
0.093224026 0.13852887 0.13995908 0.009245468 0.0086636925 0.06477588 -0.085054986 -0.07254585
0.057399556 -0.090614006 0.11267679 0.028930146 -0.016080333 -0.040551957 0.006921568 -0.11357045
0.035396125 -0.12570323 0.04203121 -0.07602026 0.09311714 0.1502772 -0.10941745 -0.11378589
0.13814694 0.037176423 -0.057522193 -0.036972813 0.013949955 -0.17064601 -0.046495847 -0.045892015
0.036446698 -0.12716705 0.1473221 0.11246589 -0.077181965 -0.10396283 -0.039118767 0.07235009
00000000: fa1e 1d3e 4d8e ec3d d298 ff3d 094b ebbd
00000010: 64c9 cdbd 53bb f4bc 9333 a23d 922a bdbd
00000020: bbe0 c1bd b055 1c3e 8726 2abd a1ad 98bc
00000030: 96bb f7bc 33e5 9d3d 62d1 673c 29c2 fbbc
00000040: 46d9 863d b5c8 43bd 7581 1e3e f6b7 233d
00000050: 42ef 023e 7861 bdbc 4397 02be 3f7d ad3d
00000060: 7c78 c5bd 0a28 e33c 6696 443c 2bf0 b43d
00000070: 5a29 10be 43ef 0e3b 8b6a c0bc 0a6c 27be
00000080: 86f6 003e b323 21be 10b7 31bd 0ac9 013e
00000090: b3f2 0eba 6a9a 0d3e 6f67 e13d 7146 aebd
000000a0: 9bf5 b8bb 8e1e b2bd 6b16 f13d 04e1 2a3e
000000b0: e8cf 333d 1d01 92bc bf06 99bd eba3 853a
000000c0: 26a9 caba 5123 a33d cf0d 093d 85c9 643d
000000d0: 81a1 ebbd a9f1 dbbd bbf2 a43c 3b63 06be
000000e0: 1800 e5bd 156a 06bd e584 5fbc 6387 ac3c
000000f0: 61a7 5d3c 942d dcbb 03bd 13bd d6db f5bc
00000100: e328 913d 3029 e13d 0822 91bc 9e77 0cbe
00000110: b239 23be 9c44 d3bd 202a 0dbe 14de 27bd
00000120: 397d 843d f49f 193d 9ae4 1a3e 2d76 a03d
00000130: 5d65 7cbd 3531 a5bd 9368 8e3d 96ab b23d
00000140: 3c83 c1bd 6d9b 07be fc41 3dbd 38ce c23d
00000150: ea0e 1b3d 5d0f a7bc 5c5e 7f3c bb13 8cbc
00000160: 9efb 01bd e6a2 963d 516c b8bd 78e8 173e
00000170: 1a72 c2bd 3c02 973d cc48 c1bd b4ae 1c3d
00000180: 7f97 c7bd 1c93 a13d 6ec8 48bd e9bb eb3d
00000190: 6077 183c e31f 80bd 92ab b6bb 6c14 803d
000001a0: e1ec 843d 4309 2c3d c220 b43d 8e8b a3bd
000001b0: fd29 a3bd b9f6 c2bd 4de2 283e 03d1 8a3d
000001c0: bc9c d6bb fb16 9e3d 4707 e73d 7b4e cb3d
000001d0: c422 bf3d 4eb3 923d b23c 24bd 0c73 e7bd
000001e0: a76e ed3d c578 2a3d 7885 a6bd c15a 443d
000001f0: ae95 c339 55a4 843b 6150 a03d ab4b 183e
00000200: 4479 05be 0ec8 9e3d ec5a 98bd ec77 fe3d
00000210: 175f 8fbc 3ee2 a7bd 877e 5d3d 92ad 113d
00000220: 85cb b93d 98d4 083c be83 77bd daeb e4bd
00000230: c772 f03d d275 17be bc1b dbbd e9d1 a9bd
00000240: 3860 b7bd 96ec 0bbe 4c18 253c c13b dbbd
00000250: c777 f5bd 33ea e13d cfd0 263e cf30 c23d
00000260: ed97 1f3d 546e 103d 1c23 c9bd 4763 933c
00000270: 152d aebd 2115 06be 5937 133e 1a19 a73c
00000280: d3db c33d 8bcc 513d cfd9 833c 3903 9bbd
00000290: 6e9f 963d cef1 49bb 6eba 60bc e43b bbbd
000002a0: 321b a33d 6555 c53d d0ae c4bd a659 a73c
000002b0: d21d 863c a32d e23c 3df9 0dbe 1686 39bd
000002c0: 2b9c 433d 4318 843d 18a7 063e b3d5 32bd
000002d0: 2bbf 1dbd d381 0fbe 9c6a 83bd 5cbc 963d
000002e0: 7613 983c 48a1 823b 38dc ccbd a7e9 f93d
000002f0: d251 aabd 7425 6a3d 8bd6 e0bd fabb 22be
00000300: f863 98bd 2865 1bbd 6b3a 54bb da49 e63d
00000310: 0422 ba3d bbb0 b7bd abce c53d 5e7a 1bbc
00000320: 9cf0 203e 3226 4bbd a24d fa3d f54c a1bd
00000330: a32e d4bd 43b4 193d e919 953c 1da3 143d
00000340: b614 d03c 84f1 cf3d 7f29 08be 3d35 b1bd
00000350: dae9 ccbb 7c0f 0abd 5749 18bc 6038 6dbd
00000360: 3dec be3d 83da 0d3e 6f51 0f3e 4e7a 173c
00000370: 29f2 0d3c 37a9 843d 4f31 aebd eb92 94bd
00000380: cc1b 6b3d d693 b9bd 17c3 e63d eafe ec3c
00000390: e7ba 83bc cf19 26bd 52ce e23b a097 e8bd
000003a0: 87fb 103d 59b8 00be eb28 2c3d 83b0 9bbd
000003b0: 33b4 be3d 44e2 193e 4216 e0bd 9408 e9bd
000003c0: 6476 0d3e 4e46 183d 649c 6bbd ce70 17bd
000003d0: 5a8e 643c d4bd 2ebe 6e72 3ebd 44f9 3bbd
000003e0: 2249 153d 1438 02be 9bdb 163e 8454 e63d
000003f0: 9411 9ebd 77ea d4bd 003b 20bd 492c 943d

transformer_encoder.layers.0.self_attn.in_proj_bias f4 [192]
-0.012812098 0.015995631 -0.008736111 0.017210597 -0.013583815 -0.01097076 0.015501376 -0.015385025
0.0009547702 0.01225683 -0.019099852 0.013162025 0.016042732 -0.0012376664 0.006349543 -0.012382161
-0.017970871 -0.010422527 0.02522024 -0.0053712307 -0.0047499295 0.0100072045 0.010944354 -0.008818635
-0.0100062005 0.01610045 0.027487433 0.029034983 0.011299663 -0.014218253 -0.014424819 0.02337059
-0.0051118294 -0.02122398 -0.012148915 0.010443647 0.016959451 0.013639109 0.017251551 -0.010785029
0.015906172 0.01101102 0.013555028 -0.022803454 -0.010881754 -0.010495137 -0.008503087 0.01233075
-0.008603066 -0.003204897 0.013285449 0.013944269 -0.014245934 0.0005989136 0.011100507 -0.008497612
0.001689036 -0.010942651 -0.014863497 -0.010382695 -0.008737495 0.0042197253 -0.021435995 0.013967025
0.00015780094 -0.00014975472 -4.7015197e-05 0.0003112546 0.00034356277 7.768386e-06 -0.00025439853 -0.00012252055
0.0004153739 -1.9694511e-05 -0.00024380899 -0.00042362328 -0.00014083227 -0.00036084343 0.0002834693 -4.3524968e-05
9.2945906e-05 -0.00032759743 4.8381127e-05 -0.00022524937 -5.4695305e-05 0.00033251167 -3.5983387e-05 -0.00015598722
0.00029807005 -0.00016312451 0.00015096052 7.3169984e-05 0.000115492345 6.863218e-05 0.00036636606 -0.00021669285
6.0664875e-05 0.00015335632 -4.778374e-05 0.00015067348 -0.0002375572 -0.00045709728 2.7084343e-05 0.00019071336
0.00022109479 -0.00023538865 -0.0002481221 7.268517e-05 0.0004920518 0.0001892007 -0.00027289853 -0.00020756974
0.00017192782 0.00015574985 -0.00025295757 2.3247923e-05 0.00016924183 0.00017032931 -3.094976e-05 0.00012740775
0.00034727756 0.0003221079 -5.0338924e-05 0.0002985588 7.00663e-05 -3.8078473e-05 9.726363e-06 -0.00023656103
0.008729859 0.011271562 0.006244559 0.004862561 -0.010122283 -0.009099807 0.012799134 -0.00046076174
-0.023410873 0.000163388 0.005043704 -0.0074189715 -0.0069418782 -0.010184861 0.0252899 0.014851004
0.009881638 0.0054128035 -0.0063201897 -0.009023738 -0.005791844 0.017073182 -0.0080197 -0.0066542216
-0.010110055 -0.01001019 0.012690883 -0.0068366206 0.0057576597 -0.00040999273 -0.009102037 -0.0075032446
-0.015342305 -0.008352021 0.009728117 0.011290517 0.012601627 -0.016158655 0.009168075 0.010230177
-0.01639468 0.008201509 -0.012886587 -0.0091843745 0.0078849 -0.006751959 -0.004884746 -0.0133490395
-0.010343485 -0.0060205027 -0.010369837 0.0010109035 -0.011071931 -0.0025268928 -0.014215543 -0.009523456
-0.0058380794 -0.007612828 -0.011460823 0.014028702 -0.01121625 -0.0026995428 0.012324559 0.0068171252
00000000: d5e9 51bc 4509 833c e821 0fbc 3dfd 8c3c
00000010: a68e 5ebc b4be 33bc 7cf9 7d3c 7911 7cbc
00000020: 8b49 7a3a dfd0 483c 4b77 9cbc 89a5 573c
00000030: 0c6c 833c 3139 a2ba d40f d03b 8cde 4abc
00000040: a637 93bc 3fc3 2abc ad9a ce3c 2601 b0bb
00000050: 4ca5 9bbb 42f5 233c f34f 333c 097c 10bc
00000060: 0cf1 23bc 17e5 833c 532d e13c c6da ed3c
00000070: 3922 393c adf3 68bc 1356 6cbc ae73 bf3c
00000080: 2281 a7bb e9dd adbc 3e0c 47bc d51b 2b3c
00000090: 8cee 8a3c 9276 5f3c 2053 8d3c b1b3 30bc
000000a0: a94d 823c 9167 343c e815 5e3c 4fce babc
000000b0: 6249 32bc ccf3 2bbc 8850 0bbc ea06 4a3c
000000c0: e0f3 0cbc 4009 52bb 36ab 593c 8176 643c
000000d0: c767 69bc 6900 1d3a e7de 353c 9139 0bbc
000000e0: a562 dd3a ce48 33bc 0686 73bc 2e1c 2abc
000000f0: b627 0fbc 9f45 8a3b 8a9a afbc f3d5 643c
00000100: 5e77 2539 7a07 1db9 2f32 45b8 e32f a339
00000110: 3720 b439 f754 0237 cb60 85b9 dc78 00b9
00000120: 8bc6 d939 a435 a5b7 faa6 7fb9 c119 deb9
00000130: 60ac 13b9 962f bdb9 9b9e 9439 948e 36b8
00000140: f4eb c238 62c1 abb9 d7ec 4a38 eb30 6cb9
00000150: a368 65b8 f654 ae39 deec 16b8 8090 23b9
00000160: 4946 9c39 670c 2bb9 284b 1e39 d672 9938
00000170: 7b34 f238 9fee 8f38 d214 c039 0b38 63b9
00000180: 6a72 7e38 46ce 2039 666b 48b8 1bfe 1d39
00000190: c618 79b9 8fa6 efb9 2f33 e337 3afa 4739
000001a0: aed5 6739 a9d2 76b9 6216 82b9 8e6e 9838
000001b0: 0afd 003a 2d64 4639 d213 8fb9 14a7 59b9
000001c0: 8647 3439 c850 2339 649f 84b9 8904 c337
000001d0: 8276 3139 6d9a 3239 0dd0 01b8 c298 0539
000001e0: ce12 b639 97e0 a839 0223 53b8 e287 9c39
000001f0: 8ff0 9238 73b6 1fb8 692e 2337 5e0d 78b9
00000200: af07 0f3c 5cac 383c 289f cc3b 1e56 9f3b
00000210: efd7 25bc 5b17 15bc 75b3 513c 6592 f1b9
00000220: 29c8 bfbc 2253 2b39 a845 a53b d81a f3bb
00000230: b278 e3bb 67de 26bc c42c cf3c a051 733c
00000240: 98e6 213c e35d b13b 9819 cfbb 4dd8 13bc
00000250: 82c9 bdbb 0fdd 8b3c 0f65 03bc a80b dabb
00000260: a5a4 25bc c801 24bc 6ced 4f3c bb05 e0bb
00000270: c0aa bc3b 4bf4 d6b9 b620 15bc c7dd f5bb
00000280: 4b5e 7bbc ead6 08bc ae62 1f3c dcfb 383c
00000290: 0e77 4e3c 285f 84bc b235 163c 799c 273c
000002a0: 234e 86bc 9f5f 063c 4322 53bc 0f7a 16bc
000002b0: ab2f 013c 8a3f ddbb 3810 a0bb eeb5 5abc
000002c0: b877 29bc a347 c5bb 40e6 29bc 4b80 843a
000002d0: 0b67 35bc 3a9a 25bb 4fe8 68bc 4508 1cbc
000002e0: 5c4d bfbb 0875 f9bb 2dc6 3bbc a4d8 653c
000002f0: 5dc4 37bc d0ea 30bb f2ec 493c 3162 df3b

transformer_encoder.layers.0.self_attn.out_proj.weight f4 [64, 64]
-0.07596265 0.029179266 0.040222783 0.0686077 -0.009137788 0.12396867 -0.092347346 -0.04745179
-0.14025368 0.12026121 0.0011307914 -0.09108313 0.070961826 0.114195116 0.09560218 -0.0010907849
0.11209733 -0.011292745 -0.14254445 0.06944404 0.07654003 -0.010686432 0.10214711 -0.007907372
-0.09527408 -0.060867712 0.09971203 -0.041772302 0.11662703 0.060518377 -0.018166719 0.077539966
0.101127885 0.12129832 -0.043826196 -0.03028157 0.01671481 -0.13756472 0.07006678 -0.014982161
0.10240538 0.12329942 -0.0723821 0.100669995 -0.06523251 -0.042533554 0.081602976 -0.06673065
-0.08366917 0.0009693561 0.055805255 0.011692331 -0.071148016 0.051907774 -0.0055984007 -0.004661114
0.0030617304 0.039993268 0.047777455 -0.08368946 -0.031044135 -0.00024548243 -0.039475232 -0.09638144
-0.049400948 -0.011597564 -0.0632446 0.089902885 0.048295543 -0.024720635 0.111869715 0.03980133
-0.013434549 0.09481054 -0.036448132 -0.07911346 0.09744534 0.037003152 0.11158416 -0.056468036
0.050367616 -0.08617298 0.011823021 -0.07207086 -0.03393052 -0.081634484 -0.100745514 -0.051803846
-0.042087924 0.08633599 -0.08543522 0.06615438 0.058779106 -0.034078825 -0.05578573 -0.017401412
0.04164731 -0.012519288 0.021739084 0.008583383 0.10255586 -0.06903608 0.0995405 -0.03070502
-0.0053868378 0.1160375 -0.12095273 -0.104700334 0.01042063 0.0060400483 -0.05807798 0.071990065
0.009677071 0.0008216702 0.05460026 -0.12830354 -0.029608538 -0.11976976 -0.033661984 -0.057803545
0.07611865 0.034342125 0.1321906 0.0641994 -0.009607172 0.03728951 -0.00873401 0.106036924
0.05858689 0.08360569 0.007592931 0.072568454 -0.120099366 -0.03799035 0.06360049 -0.025514606
-0.104790725 -0.10793332 -0.08438939 -0.11043507 -0.042801086 0.0010358575 0.018571232 -0.03414536
0.032899674 0.10716053 -0.029061405 -0.10848431 0.00074494566 0.09822057 -0.016791426 0.052756675
0.12548968 0.08308392 -0.021526696 0.09061923 -0.010394155 -0.06000248 0.022955801 0.0007120388
-0.015624252 0.0862259 0.101070315 0.11138436 0.08897701 0.014816299 0.037740458 0.07706739
0.09288504 -0.035159454 0.040464677 -0.101098865 -0.048043665 -0.03197026 -0.020352745 -0.044902492
0.037609242 0.027318183 0.010894778 -0.14440474 -0.014144534 -0.07972931 -0.03921469 -0.10728735
0.0124075785 -0.009649466 -0.12223752 -0.1102755 -0.1198975 0.06317485 0.10525749 -0.10884495
0.045818444 0.11251271 0.01419001 0.12694535 -0.05673005 -0.09718975 0.06368129 -0.01554863
0.09510593 0.08464402 -0.016960356 0.0071112034 0.04867097 -0.04449846 -0.06040791 0.018082192
-0.076143615 0.10953021 0.08211666 0.04454447 -0.053710524 -0.061665457 -0.003935302 0.020521581
-0.002071115 -0.05680488 -0.07573569 -0.03492785 -0.044964414 0.0049411906 -0.030089755 -0.06833075
0.09405631 -0.011854249 -0.0053469273 -0.011207881 0.10448446 -0.054838177 0.058849238 0.09947969
-0.11536189 -0.091107205 -0.028362218 0.06123624 -0.112639144 0.018856302 -0.07151673 0.020345727
0.07254747 0.046446577 0.099786535 0.12863621 -0.09464804 -0.053553034 0.0943146 0.112300165
0.04693561 -0.060825594 -0.10026723 0.13065082 0.0096209 0.04487963 0.0675663 0.08561804
00000000: 4e92 9bbd 5b09 ef3c a5c0 243d 3282 8c3d
00000010: a9b6 15bc 49e3 fd3d 9b20 bdbd cf5c 42bd
00000020: a99e 0fbe 824b f63d 1037 943a cb89 babd
00000030: 6f54 913d 21df e93d 13cb c33d abf8 8eba
00000040: 4993 e53d 3505 39bc 2cf7 11be ad38 8e3d
00000050: 05c1 9c3d 2516 2fbc 8132 d13d ec8d 01bc
00000060: 0f1f c3bd 6c50 79bd d235 cc3d 6f19 2bbd
00000070: 27da ee3d 1ee2 773d 5fd2 94bc 46cd 9e3d
00000080: 231c cf3d 416b f83d 1983 33bd 0e11 f8bc
00000090: 7fed 883c c4dd 0cbe 2c7f 8f3d bd77 75bc
000000a0: e9b9 d13d 6884 fc3d 113d 94bd 122c ce3d
000000b0: 9f98 85bd aa37 2ebd 761f a73d 14aa 88bd
000000c0: be5a abbd 631c 7e3a 0d94 643d 3191 3f3c
000000d0: 0db6 91bd 3f9d 543d ca72 b7bb 42bc 98bb
000000e0: 50a7 483b fbcf 233d 4bb2 433d 6165 abbd
000000f0: 4550 febc 18b4 80b9 c8b0 21bd a263 c5bd
00000100: a658 4abd b603 3ebc 6386 81bd 011f b83d
00000110: 8cd1 453d ee82 cabc f31b e53d b806 233d
00000120: 951c 5cbc 072c c23d a34a 15bd 3d06 a2bd
00000130: 6c91 c73d 9e90 173d 3c86 e43d 074b 67bd
00000140: 464e 4e3d 767b b0bd 58b5 413c e399 93bd
00000150: bbfa 0abd fb2f a7bd aa53 cebd 4530 54bd
00000160: 6364 2cbd ecd0 b03d a9f8 aebd f37b 873d
00000170: 5cc2 703d 3d96 0bbd 947f 64bd 688d 8ebc
00000180: 5f96 2a3d b31d 4dbc 2a16 b23c 51a1 0c3c
00000190: cf08 d23d ca62 8dbd e4db cb3d 1889 fbbc
000001a0: 1284 b0bb 12a5 ed3d 11b6 f7bd 216d d6bd
000001b0: 4abb 2a3c 99eb c53b 2de3 6dbd 876f 933d
000001c0: 948c 1e3c 5b65 573a 86a4 5f3d 0162 03be
000001d0: 9b8d f2bc d949 f5bd 26e1 09bd 69c3 6cbd
000001e0: 18e4 9b3d 54aa 0c3d f95c 073e fa7a 833d
000001f0: 6667 1dbc e3bc 183d 1819 0fbc e329 d93d
00000200: cff8 6f3d 7639 ab3d 1fce f83b c59e 943d
00000210: a8f6 f5bd c59b 1bbd f940 823d 0204 d1bc
00000220: 859c d6bd 250c ddbd 58d4 acbd c82b e2bd
00000230: 3150 2fbd 9cc5 873a b222 983c 01dc 0bbd
00000240: cfc1 063d fb76 db3d 2f12 eebc 062d debd
00000250: 7548 433a de27 c93d 2c8e 89bc 6217 583d
00000260: 5e80 003e e727 aa3d c158 b0bc 9396 b93d
00000270: 3f4c 2abc 29c5 75bd ce0d bc3c 1da8 3a3a
00000280: ddfc 7fbc 3497 b03d f4fd ce3d 7c1d e43d
00000290: 9439 b63d 10c0 723c bd95 1a3d 82d5 9d3d
000002a0: 833a be3d 5c03 10bd 4abe 253d ec0c cfbd
000002b0: 6fc9 44bd 3ff3 02bd cdba a6bc adeb 37bd
000002c0: 260c 1a3d 62ca df3c 0380 323c d6de 13be
000002d0: 7abe 67bc 1f49 a3bd 959f 20bd 78b9 dbbd
000002e0: 2849 4b3c cb18 1ebc aa57 fabd 1fd8 e1bd
000002f0: d28c f5bd d161 813d 3d91 d73d 1aea debd
00000300: 1fac 3b3d 106d e63d 377d 683c f6fd 013e
00000310: c55d 68bd 6b0b c7bd 566b 823d aebf 7ebc
00000320: e6c6 c23d d859 ad3d 72f0 8abc 1905 e93b
00000330: 365b 473d 0444 36bd 496e 77bd 1b21 943c
00000340: 2ff1 9bbd 6051 e03d c82c a83d 4374 363d
00000350: 91ff 5bbd eb94 7cbd b5f3 80bb e01c a83c
00000360: 8bbb 07bb 3cac 68bd 501b 9bbd 8110 0fbd
00000370: 9b2c 38bd b6e9 a13b ca7e f6bc fef0 8bbd
00000380: 98a0 c03d 5338 42bc 4735 afbb 43a1 37bc
00000390: f3fb d53d ff9d 60bd e60b 713d 02bc cb3d
000003a0: db42 ecbd 6a96 babd e257 e8bc dad2 7a3d
000003b0: 5aaf e6bd 8878 9a3c 5d77 92bd 15ac a63c
000003c0: c593 943d c43e 3e3d e25c cc3d 36b9 033e
000003d0: d5d6 c1bd 6d5a 5bbd 0328 c13d a1fd e53d
000003e0: 8e3f 403d 4224 79bd e858 cdbd 54c9 053e
000003f0: fba0 1d3c b4d3 373d 3360 8a3d 8358 af3d

transformer_encoder.layers.0.self_attn.out_proj.bias f4 [64]
0.011775893 0.011703177 0.0027024494 -0.014359182 0.009467657 0.020307327 -0.0067022745 -0.0025389418
-0.005609327 -0.00816785 -0.011387828 0.012519882 0.005979887 -0.010006414 -0.013002112 -0.014804773
-0.008568201 -0.0064505776 0.00991913 -0.012764318 -0.0097624725 -0.0125148315 0.014403821 0.013444382
-0.01271329 -0.013007983 0.017872028 -0.008813519 0.013196419 -0.008462862 0.009547806 0.0016595826
0.010606684 -0.0006392189 0.009459913 0.006115798 0.0021863915 0.0046862797 0.008232649 -0.0059761913
0.00964416 0.009894409 0.009540852 0.014193957 -0.015449424 0.013438176 -0.018756932 -0.00921118
0.010733586 0.014307129 -0.003178481 0.004292527 -0.012396357 0.008554317 0.004254043 -0.007823258
-0.011870903 0.00962651 -0.014776172 0.014778999 -0.009790616 0.0021306633 -0.010253191 -0.011212661
00000000: adef 403c afbe 3f3c 941b 313b c642 6bbc
00000010: 3b1e 1b3c 8d5b a63c c19e dbbb 6064 26bb
00000020: 72ce b7bb 72d2 05bc 0394 3abc 3120 4d3c
00000030: eef2 c33b f1f1 23bc cf06 55bc b88f 72bc
00000040: a461 0cbc 5e5f d3bb d983 223c 6e21 51bc
00000050: c7f2 1fbc 020b 4dbc 01fe 6b3c d345 5c3c
00000060: 674b 50bc 6f1f 55bc 5c68 923c 9466 10bc
00000070: cb35 583c d1a7 0abc 676e 1c3c 5a86 d93a
00000080: a8c7 2d3c 4191 27ba c0fd 1a3c 0867 c83b
00000090: 9049 0f3b 5d8f 993b 3ce2 063c edd3 c3bb
000000a0: 8a02 1e3c 291c 223c 3c51 1c3c c58d 683c
000000b0: 951f 7dbc cc2b 5c3c 23a8 99bc 7dea 16bc
000000c0: ecdb 2f3c 7368 6a3c 104e 50bb 54a8 8c3b
000000d0: 171a 4bbc 6827 0c3c 8065 8b3b 1f2d 00bc
000000e0: 2d7e 42bc 82b8 1d3c c217 72bc 9d23 723c
000000f0: d268 20bc 99a2 0b3b 00fd 27bc 4fb5 37bc

transformer_encoder.layers.0.linear1.weight f4 [128, 64]
0.11394913 0.0016525689 0.08288857 0.067393936 -0.11115657 0.11213582 0.037096255 0.028827164
-0.063345894 0.015776977 -0.08674501 0.06499789 -0.07154791 0.09381101 0.10224501 0.08215328
-0.0029277075 -0.02270458 0.10109995 0.06574872 0.034352932 0.0031842375 -0.032375526 -0.12126534
-0.10874392 0.019631889 -0.034066733 0.0975213 0.1312641 0.019616311 0.0015848086 -0.009267021
-0.06357776 0.034352873 0.07598797 -0.01706764 0.11894136 -0.02748503 0.02202325 0.11044728
0.12773079 0.02900292 -0.042073548 0.100615956 -0.07980124 -0.07583923 0.112151146 -0.10363046
0.054055326 -0.023410795 0.090577975 -0.024884142 0.07425464 0.011345436 0.11453808 -0.04943761
-0.048095252 -0.02074603 -0.08377316 0.10073402 -0.09187689 0.04064692 -0.09127864 0.10835264
-0.012196821 -0.074875735 0.07038995 -0.061037626 0.053235535 0.12397374 -0.0022189387 0.06601963
0.054022316 -0.04820657 0.10229357 -0.03201232 -0.03543674 -0.007851199 0.041550554 0.022708558
0.027660772 0.03475735 -0.118681565 -0.0075675407 -0.09736947 -0.078384094 0.13003036 0.028184477
0.03687914 0.084119506 -0.08536573 -0.040948763 -0.05608936 0.0336599 0.033447403 0.011295375
-0.09911157 -0.051304426 0.03671553 0.0023778959 0.046873473 -0.09882546 0.057744984 -0.093882605
-0.10589363 0.10418865 -0.06843345 0.020582657 0.049343493 -0.064964145 -0.10776997 0.02978633
-0.059329916 -0.1002122 0.0547322 -0.049604654 0.018520428 -0.12487624 0.05381526 -0.07484342
0.062138643 0.03216095 0.083845995 0.006468987 -0.049426217 -0.05262762 0.053891353 0.08739622
0.098738335 -0.09754258 -0.007036874 -0.092552796 0.035202526 -0.101141624 -0.002190576 0.0005745415
0.030034479 -0.056897648 0.03640945 0.096147 -0.031223875 -0.061871145 0.056778204 -0.0686297
0.06585132 -0.016252864 -0.13645166 -0.0032473104 -0.037011344 0.097687066 -0.018751735 0.1081082
0.1095888 0.03202693 -0.0887041 -0.078003936 -0.03826179 0.093981944 -0.044991102 0.1122053
-0.013508961 -0.059339385 -0.0066886586 -0.09274515 -0.12080861 -0.05272426 -0.03926347 0.014371475
0.06834363 0.08652779 0.019348687 -0.02314563 -0.098720014 0.099399805 0.10002814 0.022608943
-0.046053957 -0.024133591 0.004021515 -0.045436405 0.084560424 0.10927902 -0.12436301 -0.06677144
0.06718938 -0.011044388 0.089065164 0.089153 -0.111959435 -0.07971709 -0.08459009 0.12901492
-0.0466221 0.008595966 -0.03076614 -0.10287401 -0.072576515 0.10270421 -0.12286112 -0.07435105
0.06264275 0.021389546 0.045108143 0.04193509 0.013437927 0.12581223 0.10702436 0.043158982
-0.14869939 -0.031071251 0.08380394 -0.13454314 0.1325791 -0.1035341 0.057612825 0.041283756
-0.09615213 0.07936687 0.0063930065 0.05041742 0.13357699 0.11381897 -0.006519224 0.13215587
-0.068836935 -0.021987591 0.0819585 0.018466184 0.022889117 -0.10386953 -0.038101736 0.11974521
0.08305352 -0.11530263 0.036205225 0.106363796 -0.01136963 -0.081770465 0.075224586 -0.052157726
-0.043742053 0.0020750195 0.11785227 0.04294085 -0.023711147 0.118208714 0.064981915 0.038493205
0.012228731 0.048947748 -0.027755858 0.11423215 0.10893184 0.019976059 0.045405705 -0.03845333
00000000: 295e e93d 039b d83a 7cc1 a93d d505 8a3d
00000010: 0ea6 e3bd 77a7 e53d 3ef2 173d f226 ec3c
00000020: 7ebb 81bd b83e 813c 5ea7 b1bd 9d1d 853d
00000030: b687 92bd fd1f c03d d565 d13d fb3f a83d
00000040: c8de 3fbb f5fe b9bc 7e0d cf3d 44a7 863d
00000050: a9b5 0c3d a4ae 503b 339c 04bd f659 f8bd
00000060: 22b5 debd 0ed3 a03c 8f89 0bbd 3fb9 c73d
00000070: 196a 063e 63b2 a03c 5ab9 cf3a b4d4 17bc
00000080: 0e35 82bd 99b5 0c3d 959f 9b3d 6fd1 8bbc
00000090: 8797 f33d 4928 e1bc 1a6a b43c 2f32 e23d
000000a0: dccb 023e 8897 ed3c 5055 2cbd bd0f ce3d
000000b0: d56e a3bd 9951 9bbd 80af e53d 353c d4bd
000000c0: 1e69 5d3d ffc7 bfbc f280 b93d d4d9 cbbc
000000d0: d112 983d 35e2 393c f192 ea3d 177f 4abd
000000e0: 87ff 44bd 94f3 a9bc 4391 abbd a34d ce3d
000000f0: f329 bcbd 637d 263d 4cf0 babd fde7 dd3d
00000100: 2dd5 47bc 7358 99bd 9b28 903d 9702 7abd
00000110: 810d 5a3d f2e5 fd3d 9d6b 11bb 4d35 873d
00000120: 8146 5d3d 4174 45bd 4b7f d13d 5a1f 03bd
00000130: 1d26 11bd 51a2 00bc ea30 2a3d 4c07 ba3c
00000140: d898 e23c b95d 0e3d 520f f3bd 22f9 f7bb
00000150: a569 c7bd d787 a0bd ae26 053e 22e3 e63c
00000160: 950e 173d d946 ac3d 3ad4 aebd e4b9 27bd
00000170: f5bd 65bd f7de 093d 2500 093d 3d10 393c
00000180: 02fb cabd 9724 52bd 0663 163d 79d6 1b3b
00000190: 66fe 3f3d 0165 cabd 0186 6c3d 8645 c0bd
000001a0: c2de d8bd dc60 d53d d626 8cbd f69c a83c
000001b0: 671c 4a3d ec0b 85bd 81b6 dcbd 7602 f43c
000001c0: ed03 73bd 0e3c cdbd df2e 603d 402e 4bbd
000001d0: 27b8 973c 1dbf ffbd 646d 5c3d 8247 99bd
000001e0: 1785 7e3d 33bb 033d 73b7 ab3d ccf9 d33b
000001f0: 2573 4abd 0f90 57bd 2ebd 5c3d cafc b23d
00000200: 5337 ca3d 67c4 c7bd 9495 e6bb 528c bdbd
00000210: 8630 103d 5723 cfbd c48f 0fbb d49c 163a
00000220: de0a f63c 820d 69bd 1322 153d b8e8 c43d
00000230: 36c9 ffbc 996c 7dbd 4390 683d ba8d 8cbd
00000240: 0fdd 863d ba24 85bc fcb9 0bbe d4d0 54bb
00000250: 3599 17bd 2810 c83d 3d9d 99bc d567 dd3d
00000260: 1870 e03d ac2e 033d 7faa b5bd 87c0 9fbd
00000270: 65b8 1cbd 9b79 c03d 9748 38bd e4cb e53d
00000280: b054 5dbc db0d 73bd 892c dbbb 2bf1 bdbd
00000290: 816a f7bd 65f5 57bd bbd2 20bd 5676 6b3c
000002a0: bff7 8b3d 7b35 b13d 2381 9e3c e79b bdbc
000002b0: b82d cabd 2092 cb3d 8edb cc3d 6436 b93c
000002c0: 13a3 3cbd cfb3 c5bc eac6 833b 861b 3abd
000002d0: 042e ad3d aecd df3d 09b2 febd 77bf 88bd
000002e0: 969a 893d 85f3 34bc cc67 b63d d995 b63d
000002f0: fd4a e5bd b742 a3bd 923d adbd 7d1c 043e
00000300: d1f6 3ebd 18d6 0c3c 4609 fcbc 9caf d2bd
00000310: ffa2 94bd 9656 d23d 9c9e fbbd 5d45 98bd
00000320: d84a 803d 2139 af3c 51c3 383d 21c4 2b3d
00000330: c02a 5c3c ecd4 003e 962f db3d 79c7 303d
00000340: a744 18be 2389 febc 66a1 ab3d adc5 09be
00000350: d1c2 073e b009 d4bd 6dfb 6b3d 2819 293d
00000360: 68eb c4bd 198b a23d 6d7c d13b 7f82 4e3d
00000370: 68c8 083e ec19 e93d 379f d5bb de53 073e
00000380: 61fa 8cbd 521f b4bc dcd9 a73d 6546 973c
00000390: f581 bb3c 8cb9 d4bd 9110 1cbd fa3c f53d
000003a0: f717 aa3d c923 ecbd ee4b 143d 43d5 d93d
000003b0: af47 3abc 4677 a7bd 590f 9a3d 57a3 55bd
000003c0: de2a 33bd 0dfd 073b 885c f13d bfe2 2f3d
000003d0: e13d c2bc 6917 f23d 3d15 853d 0dab 1d3d
000003e0: 045b 483c 6f7d 483d 4160 e3bc 8cf2 e93d
000003f0: a817 df3d d5a4 a33c 55fb 393d 3d81 1dbd

transformer_encoder.layers.0.linear1.bias f4 [128]
-0.017841516 0.009555552 0.012093098 0.054022625 -0.015341151 -0.042840544 0.08446157 0.0048093647
-0.05692084 0.09853797 -0.094146796 0.084717594 0.09171818 -0.041457184 -0.0994746 0.053685464
-0.017971262 -0.09675534 0.02376028 -0.09460838 0.0497307 0.096210815 -0.015853317 0.122563556
0.08974132 -0.10842255 0.08631616 -6.7666566e-05 0.060388323 0.08346161 -0.033268277 -0.034301363
-0.12544669 0.121167906 -0.1269465 0.016741004 0.07542228 -0.08298059 -0.037360586 0.04486346
-0.029800631 0.056743 -0.04377619 0.0020135862 -0.06828637 -0.008696941 -0.05139278 0.049328737
0.09701742 0.107453436 -0.05306542 0.016201256 0.0003075907 -0.0973 -0.06830869 -0.06190799
0.00021860533 0.024413113 -0.0023844438 0.02484642 0.09974477 -0.060899228 0.03531192 0.00404963
0.10201202 -0.048787426 0.033598606 0.005914945 0.0076844324 0.14551006 0.09567904 -0.09447748
0.11947179 0.11109946 0.097469784 0.035386022 0.07670067 0.0842636 -0.0036910106 -0.043721605
0.030258503 -0.061052967 -0.090523 0.09932048 0.013807264 0.014347742 0.03932037 0.10152859
0.11378069 0.082557455 0.046534657 -0.119374864 0.049324565 0.0054838797 0.10072772 -0.11662762
0.06294788 0.039876424 0.010163996 -0.11074813 0.026508251 0.13348573 -0.022915142 -0.096866824
-0.012604066 0.08879965 -0.052745055 -0.044149056 -0.06165591 0.10142393 -0.070071094 -0.013848821
-0.061752357 -0.07180508 -0.09399235 0.08123894 0.12645596 -0.033963513 0.119061925 -0.13557939
-0.024685184 -0.031957548 -0.05481045 0.08069712 -0.065268576 -0.024402637 0.09276737 0.019665891
00000000: 5f28 92bc e48e 1c3c 2122 463c d446 5d3d
00000010: 7359 7bbc 9179 2fbd 30fa ac3d e097 9d3b
00000020: d425 69bd 46ce c93d 09d0 c0bd 6b80 ad3d
00000030: bed6 bb3d 02cf 29bd 57b9 cbbd 4ae5 5b3d
00000040: 7838 93bc aa27 c6bd eba4 c23c 0ac2 c1bd
00000050: 6bb2 4b3d 2d0a c53d d1de 81bc 9a02 fb3d
00000060: 4cca b73d a40c debd 87c6 b03d 36e8 8db8
00000070: bf59 773d eced aa3d 5144 08bd 967f 0cbd
00000080: 1975 00be e126 f83d 43fe 01be 6e24 893c
00000090: ff76 9a3d baf1 a9bd 6a07 19bd bfc2 373d
000000a0: 7420 f4bc 596b 683d aa4e 33bd 5ff6 033b
000000b0: b9d9 8bbd 9d7d 0ebc 3c81 52bd ee0c 4a3d
000000c0: 12b1 c63d 8c10 dc3d 205b 59bd 7fb8 843c
000000d0: 2044 a139 3945 c7bd 6de5 8bbd 3c93 7dbd
000000e0: 6c39 6539 02fe c73c 5444 1cbb b88a cb3c
000000f0: fc46 cc3d 7871 79bd 3ba3 103d c2b2 843b
00000100: aeeb d03d 53d5 47bd b19e 093d 28d2 c13b
00000110: b1cd fb3b 9700 153e 5ff3 c33d 697d c1bd
00000120: a0ad f43d 1d88 e33d 3d9e c73d eff0 103d
00000130: 3e15 9d3d 6592 ac3d e2e4 71bb 6d15 33bd
00000140: aee0 f73c ad12 7abd 1f64 b9bd 8968 cb3d
00000150: dd37 623c cb12 6b3c 650e 213d 39ee cf3d
00000160: da05 e93d e213 a93d 209b 3e3d cf7a f4bd
00000170: 8e08 4a3d 1eb2 b33b 564a ce3d 76da eebd
00000180: d1ea 803d 7655 233d e486 263c eacf e2bd
00000190: d527 d93c 7cb0 083e 89b8 bbbc 1d62 c6bd
000001a0: 4981 4ebc 97dc b53d 330b 58bd a4d5 34bd
000001b0: e88a 7cbd 59b7 cf3d 6f81 8fbd 2ae6 62bc
000001c0: 0af0 7cbd 8b0e 93bd 107f c0bd 9a60 a63d
000001d0: ac7d 013e 531d 0bbd bdd6 f33d 53d5 0abe
000001e0: 9538 cabc ebe5 02bd ec80 60bd 8844 a53d
000001f0: 88ab 85bd 0ae8 c7bc d2fc bd3d 5d1a a13c

transformer_encoder.layers.0.linear2.weight f4 [64, 128]
0.00013839864 -0.01833574 0.07984086 0.04079125 -0.049863346 0.002226334 -0.06684794 -0.07049685
0.08464672 -0.026639473 0.1127383 0.0005646245 -0.12022606 0.034032896 0.0028550702 -0.027803216
0.05654589 0.039531127 -0.05924679 0.07938654 -0.0057294425 -0.019281179 -0.04504044 0.041159183
0.034527995 -0.0847327 -0.057450674 -0.10160529 -0.030038256 -0.031963695 0.11815663 0.013448904
-0.046287425 -0.09687844 -0.025945852 -0.0076362784 -0.008960314 0.10697964 -0.03648817 -0.061124425
-0.010769768 -0.01082376 -0.061469395 -0.08861094 0.037063584 0.011566191 0.05653607 -0.00659673
-0.054525483 0.01009538 0.067635484 -0.061447527 0.095370546 0.048488393 -0.048639864 0.007374871
-0.039804988 -0.020979112 -0.027066518 0.009429314 0.074008316 0.013239235 -0.041221414 0.0059123766
-0.0044928673 0.06191564 0.054263756 0.030326037 -0.059372872 0.024950152 0.09111385 -0.042139955
0.0049016136 0.060705412 0.05743279 -0.02066496 0.00170364 -0.050385516 -0.1029955 -0.045919534
0.0018941691 -0.03441081 -0.02487992 0.021133382 0.06096147 0.055353437 0.05837224 0.0016779825
-0.0018070826 -0.018793657 -0.03470089 0.055144712 0.0055916747 0.022943972 0.014829553 0.054128084
-0.013739061 0.028805349 0.079908386 0.104339644 -0.088289656 0.062400114 0.097473934 0.04320753
0.080831766 0.047685668 -0.027832273 -0.014422824 0.03791681 0.09945851 -0.059178833 -0.031811863
0.07772943 0.053337228 -0.044672403 0.045219243 0.05046599 0.101107 0.06990809 -0.050784707
-0.007955128 -0.11428682 -0.026684022 -0.030636856 0.025549833 0.030451495 -0.06389749 0.009776124
0.05238328 -0.025045682 0.010024407 0.05850554 0.05815854 -0.046691358 0.052506 0.01035288
-0.079218075 0.040354855 0.048713043 0.07025746 0.012886741 -0.11287446 -0.0036387101 -0.037585627
-0.03497946 0.06107204 -0.014858871 -0.027369753 -0.025875527 -0.09349594 0.009862998 -0.03031109
0.019111548 -0.009446562 0.090878375 0.06208609 0.03596737 0.0716985 0.0412917 -0.038331
-0.0078083505 0.039795913 0.08471227 -0.018180015 -0.05203973 0.049733695 0.06352912 -0.062039893
0.06362936 -0.046243437 0.07713519 0.0012685528 -0.06396352 0.05702035 0.07091316 -0.038446557
-0.01642513 -0.04992508 -0.016643157 0.033850573 -0.054386865 0.09251783 0.10137082 -0.07089508
-0.05052248 0.08374357 0.014713363 0.040672056 -0.0212314 0.009684836 -0.013133586 0.061317172
0.04173214 0.058499616 0.07495338 0.098552465 -0.023772653 0.061160877 -0.013930618 0.0067555285
0.07884127 -0.070149936 0.0046617747 -0.10393329 0.07641686 -0.008180791 0.049663287 0.08374175
0.07272063 0.008496721 0.019958867 0.08116597 -0.0037769636 -0.060750745 -0.043194566 0.101010956
0.015679697 -0.012967874 0.08116228 -0.07331591 -0.036252152 0.003896491 0.07426831 -0.045943014
-0.062453363 0.028292997 -0.055193834 0.019280853 -0.068899 0.09183014 -0.026172293 0.057893444
-0.038374882 0.027575841 0.034798946 -0.047668073 -0.093406215 0.07536295 0.08350121 -0.05985214
-0.013870074 0.0305389 -0.069118775 0.050869733 0.009318692 0.08019995 0.09633826 0.03754434
0.019207751 -0.024594707 0.024902739 0.051597595 0.018749509 0.08581158 -0.04999864 0.06447256
00000000: 1a1f 1139 d534 96bc 9b83 a33d ba14 273d
00000010: 823d 4cbd b0e7 113b 93e7 88bd a760 90bd
00000020: 425b ad3d 063b dabc 56e3 e63d 4f03 143a
00000030: 1539 f6bd 1466 0b3d 211c 3b3b 92c3 e3bc
00000040: aa9c 673d 64eb 213d c3ac 72bd 6995 a23d
00000050: 0cbe bbbb 90f3 9dbc 537c 38bd 8896 283d
00000060: 3a6d 0d3d 5688 adbd 6651 6bbd 6f16 d0bd
00000070: ca12 f6bc 5dec 02bd 1afc f13d cb58 5c3c
00000080: e297 3dbd 3468 c6bd 658c d4bc bf39 fabb
00000090: 48ce 12bc 2418 db3d 9f74 15bd 9b5d 7abd
000000a0: ae73 30bc 2456 31bc 55c7 7bbd a779 b5bd
000000b0: fccf 173d 1f80 3d3c 5e92 673d 6229 d8bb
000000c0: 1d56 5fbd 1867 253c 7984 8a3d 67b0 7bbd
000000d0: a251 c33d c49b 463d 983a 47bd e7a8 f13b
000000e0: 8e0a 23bd 63dc abbc 9aba ddbc 697d 1a3c
000000f0: ac91 973d 60e9 583c c9d7 28bd 9cbc c13b
00000100: e738 93bb 419b 7d3d ac43 5e3d 4f6e f83c
00000110: f830 73bd 4364 cc3c e699 ba3d f29a 2cbd
00000120: b79d a03b 3da6 783d a53e 6b3d 9049 a9bc
00000130: ac4c df3a 0b61 4ebd 4eef d2bd 1f16 3cbd
00000140: c545 f83a 59f2 0cbd f9d0 cbbc ea1f ad3c
00000150: bcb2 793d 49ba 623d bb17 6f3d c0ef db3a
00000160: a1db ecba 28f5 99bc 8522 0ebd 6cdf 613d
00000170: 5e3a b73b fff4 bb3c a7f7 723c 69b5 5d3d
00000180: cc19 61bc 32f9 eb3c 02a7 a33d 06b0 d53d
00000190: 35d1 b4bd 4397 7f3d 6aa0 c73d 61fa 303d
000001a0: 208b a53d 0c52 433d 8200 e4bc b54d 6cbc
000001b0: a84e 1b3d e7b0 cb3d 8165 72bd 284d 02bd
000001c0: 9b30 9f3d 2378 5a3d 69fa 36bd d037 393d
000001d0: 6db5 4e3d 3011 cf3d f92b 8f3d a003 50bd
000001e0: 3a56 02bc 350f eabd 7398 dabc 25fa fabc
000001f0: e24d d13c 6a75 f93c b0dc 82bd 092c 203c
00000200: da8f 563d 9a2c cdbc 693d 243c 81a3 6f3d
00000210: a637 6e3d 703f 3fbd 8810 573d 209f 293c
00000220: 163d a2bd 224b 253d 5487 473d 25e3 8f3d
00000230: e922 533c ba2a e7bd 6d77 6ebb 63f3 19bd
00000240: 9f46 0fbd ad26 7a3d 9f72 73bc 8836 e0bc
00000250: eaf8 d3bc cd7a bfbd 6998 213c f74e f8bc
00000260: d28f 9c3c c1c5 1abc 711e ba3d fc4d 7e3d
00000270: 8552 133d aad6 923d 7c21 293d f700 1dbd
00000280: 31dd ffbb 0a01 233d a07d ad3d 41ee 94bc
00000290: 9d27 55bd 8fb5 4b3d 8e1b 823d 8b1d 7ebd
000002a0: 1c50 823d c269 3dbd 0ef9 9d3d 9245 a63a
000002b0: 4eff 82bd 2c8e 693d eb3a 913d 237a 1dbd
000002c0: ff8d 86bc 3e7e 4cbd 3b57 88bc e6a6 0a3d
000002d0: c3c4 5ebd fd79 bd3d 819b cf3d 7131 91bd
000002e0: a9f0 4ebd c081 ab3d 5110 713c be97 263d
000002f0: 79ed adbc 25ad 1e3c 412e 57bc b727 7b3d
00000300: 52ef 2a3d 4b9d 6f3d 2881 993d e0d5 c93d
00000310: debe c2bc d483 7a3d 3f3d 64bc 7b5d dd3b
00000320: 8877 a13d c5aa 8fbd cdc1 983b fada d4bd
00000330: 7180 9c3d b908 06bc bb6b 4b3d cb80 ab3d
00000340: 8eee 943d d535 0b3c c780 a33c 583a a63d
00000350: ef86 77bb c6d5 78bd c9ec 30bd d5de ce3d
00000360: b572 803c 3577 54bc 6938 a63d a726 96bd
00000370: 237d 14bd 455c 7f3b fc19 983d be2e 3cbd
00000380: 19cf 7fbd b7c6 e73c ee12 62bd e1f2 9d3c
00000390: eb1a 8dbd 7111 bc3d 4767 d6bc ad21 6d3d
000003a0: fb2e 1dbd bbe6 e13c 5789 0e3d 993f 43bd
000003b0: c24b bfbd e457 9a3d af02 ab3d 8427 75bd
000003c0: 4f3f 63bc b72c fa3c 258e 8dbd c85c 503d
000003d0: 6dad 183c df3f a43d fe4c c53d 18c8 193d
000003e0: 9359 9d3c d77a c9bc d400 cc3c 0058 533d
000003f0: 9298 993c fbbd af3d 60cb 4cbd 310a 843d

transformer_encoder.layers.0.linear2.bias f4 [64]
-0.008478388 0.030493492 0.02357213 -0.062272232 0.07623175 0.041369107 0.022469912 -0.007228202
0.07887298 0.028140645 0.034786817 0.00292384 0.014294589 0.013844615 -0.03825021 -0.022480603
-0.051676508 0.07030056 0.011890493 -0.020704785 0.016465742 -0.03869654 -0.05074955 0.008978106
-0.023214689 0.06451367 0.026242476 -0.08650396 0.015400955 0.0016772938 0.0059997113 -0.009230212
-0.0037566626 0.019887121 0.09093262 -0.013773691 0.062384564 -0.00068788795 0.04488793 0.042875774
-0.05691939 -0.0120636085 0.078633435 -0.041245304 0.03541869 0.056490164 -0.0021508958 0.019720204
0.054699633 -0.014324858 0.013082731 -0.018073166 0.008479593 0.026901186 -0.003878873 -0.02815772
-0.027070928 -0.05596372 -0.09196063 0.05987795 0.040970314 0.068199694 -0.003497681 0.04684105
00000000: f0e8 0abc 7dcd f93c 571a c13c 2b11 7fbd
00000010: 641f 9c3d a772 293d d212 b83c 8eda ecbb
00000020: 2888 a13d 3687 e63c 9f7c 0e3d e59d 3f3b
00000030: da33 6a3c 86d4 623c 41ac 1cbd 3e29 b8bc
00000040: bfaa 53bd bdf9 8f3d 58d0 423c 159d a9bc
00000050: 2ae3 863c 4380 1ebd c3de 4fbd e818 133c
00000060: bb2c bebc be1f 843d 76fa d63c fd28 b1bd
00000070: 4a54 7c3c a4d8 db3a 3a99 c43b 513a 17bc
00000080: 5732 76bb 51ea a23c e23a ba3d 0cab 61bc
00000090: f586 7f3d 6153 34ba 68dc 373d 829e 2f3d
000000a0: 4e24 69bd 71a6 45bc 910a a13d d6f0 28bd
000000b0: 3013 113d 3b62 673d 0bf6 0cbb 448c a13c
000000c0: b90c 603d cfb2 6abc f358 563c 2d0e 94bc
000000d0: feed 0a3c e05f dc3c b134 7ebb 05ab e6bc
000000e0: dac3 ddbc 373a 65bd db55 bcbd 9542 753d
000000f0: 7dd0 273d 48ac 8b3d 5a39 65bb 67dc 3f3d

transformer_encoder.layers.0.norm1.weight f4 [64]
0.9963455 0.9907144 0.99087447 0.98518074 0.9771375 0.99474704 0.99486303 1.0476098
0.9813226 1.0082814 0.9777724 1.0251905 1.0193212 1.03568 1.0315676 0.99421537
1.0133117 1.0100307 0.9923629 1.0305235 1.0136379 0.9915073 0.9786021 1.015619
0.9818403 1.023892 0.99135375 0.99068516 1.0094644 1.0047383 0.9939448 1.0382252
1.0108643 1.001362 0.99291444 1.0288265 0.9799044 1.0058688 1.0235264 0.9983161
1.0167023 0.98313165 0.98511714 0.9891704 0.9805301 1.0043931 0.9805533 0.9836775
1.0235261 1.003639 1.0090824 1.0049208 0.9794769 1.0064832 1.0185709 1.0300426
0.99369043 1.008786 1.0056465 0.986572 1.0027728 1.0041013 1.0042113 0.98752874
00000000: 8010 7f3f 759f 7d3f f3a9 7d3f ce34 7c3f
00000010: af25 7a3f bea7 7e3f 58af 7e3f 1418 863f
00000020: f537 7b3f 5d0f 813f 4b4f 7a3f 7139 833f
00000030: 1e79 823f 2a91 843f 680a 843f e684 7e3f
00000040: 33b4 813f b048 813f 7f0b 7e3f 32e8 833f
00000050: e3be 813f 6cd3 7d3f ab85 7a3f ceff 813f
00000060: e359 7b3f e50e 833f 5cc9 7d3f 8b9d 7d3f
00000070: 2136 813f 449b 803f 2b73 7e3f 90e4 843f
00000080: 0064 813f a12c 803f a42f 7e3f 96b0 833f
00000090: 04db 7a3f 4fc0 803f ea02 833f a591 7f3f
000000a0: 4d23 823f 84ae 7b3f a330 7c3f 453a 7d3f
000000b0: 0504 7b3f f48f 803f 8b05 7b3f 4ad2 7b3f
000000c0: e702 833f 3e77 803f 9d29 813f 3fa1 803f
000000d0: 00bf 7a3f 71d4 803f 8860 823f 70d8 833f
000000e0: 7f62 7e3f e61f 813f 06b9 803f fc8f 7c3f
000000f0: dc5a 803f 6486 803f ff89 803f afce 7c3f

transformer_encoder.layers.0.norm1.bias f4 [64]
0.016184093 0.013182746 0.0041196845 -0.015068077 0.009799212 0.020162586 -0.00647115 0.005360263
-0.0036186667 -0.008584293 -0.0068175057 0.010767023 0.006972991 -0.010856728 -0.003015957 -0.016399866
-0.009687078 -0.0054997737 0.013471812 -0.012838162 -0.008256429 -0.012715885 0.013970003 0.014391433
-0.012889232 -0.0137049835 0.018768232 -0.008416554 0.013502337 -0.010842021 0.00968618 0.00082302483
0.010763679 -0.0019088144 0.01125536 0.0065383376 0.012957734 -0.00014830768 0.008291249 -0.006387968
0.006902972 0.009512156 0.010500922 0.01699828 -0.016197685 0.015444233 -0.019741464 -0.009397603
0.009961961 0.014134878 -0.00217142 0.004013118 -0.016653074 0.008980533 0.005410535 -0.008471205
-0.011238323 0.009948061 -0.013273893 0.016053913 -0.0034320364 0.0008044103 -0.009941147 -0.011266762
00000000: 8194 843c 72fc 573c 6bfe 863b 18e0 76bc
00000010: e08c 203c 022c a53c f10b d4bb 25a5 af3b
00000020: 2727 6dbb 22a5 0cbc 6265 dfbb 2b68 303c
00000030: b07d e43b 6be0 31bc 5da7 45bb 0359 86bc
00000040: 8db6 1ebc 7237 b4bb e0b8 5c3c 2757 52bc
00000050: f945 07bc 4a56 50bc 71e2 643c 0cca 6b3c
00000060: 5b2d 53bc de8a 60bc d6bf 993c 96e5 09bc
00000070: e838 5d3c bba2 31bc c9b2 1e3c 43c0 573a
00000080: 245a 303c 2f31 faba 6768 383c 8d3f d63b
00000090: ad4c 543c 0a83 1bb9 05d8 073c 2952 d1bb
000000a0: 5332 e23b e0d8 1b3c 0f0c 2c3c fa3f 8b3c
000000b0: 02b1 84bc cf09 7d3c dab8 a1bc 67f8 19bc
000000c0: 7e37 233c fa95 673c 624e 0ebb 7980 833b
000000d0: 076c 88bc 1623 133c db4a b13b cfca 0abc
000000e0: f120 38bc 31fd 223c be7a 59bc 7f83 833c
000000f0: 04ec 60bb 10df 523a 31e0 22bc 3a98 38bc

transformer_encoder.layers.0.norm2.weight f4 [64]
0.997858 0.99186957 0.988631 0.9839922 0.98279554 1.0097783 0.99356115 1.0455041
0.98126185 1.008878 0.983968 1.0127819 1.0146624 1.0331573 1.0333687 0.99370176
1.0023614 1.0075774 0.9923683 1.0131874 1.0104676 1.0048895 0.9802534 1.0239562
1.0095836 0.9975445 1.0011332 0.9971105 1.0183668 1.0001961 0.9783544 1.0071472
1.0119498 0.9994654 0.9953967 1.0295833 0.9799901 0.9700413 1.0265583 1.0130357
1.0228027 0.9785829 0.98805696 0.99960226 0.9822807 1.0020806 0.9818062 0.9828458
1.0083318 1.0174764 1.0105984 1.0076985 0.9852919 1.00698 1.0217093 1.0044458
0.9819491 1.0115508 0.99485785 0.9880615 1.005958 1.0080607 0.9956136 0.9896978
00000000: 9f73 7f3f 2aeb 7d3f ec16 7d3f eae6 7b3f
00000010: 7d98 7b3f 6a40 813f 065a 7e3f 14d3 853f
00000020: fa33 7b3f ea22 813f 54e5 7b3f d6a2 813f
00000030: 75e0 813f 803e 843f 6d45 843f 3d63 7e3f
00000040: 614d 803f 4cf8 803f d90b 7e3f 20b0 813f
00000050: 0157 813f 38a0 803f e3f1 7a3f ff10 833f
00000060: 093a 813f 145f 7f3f 2225 803f a242 7f3f
00000070: d859 823f 6d06 803f 6f75 7a3f 33ea 803f
00000080: 9287 813f f7dc 7f3f 51d2 7e3f 63c9 833f
00000090: a2e0 7a3f a054 783f 4366 833f 27ab 813f
000000a0: 33eb 823f 6984 7a3f 4df1 7c3f efe5 7f3f
000000b0: bf76 7b3f 2d44 803f a757 7b3f c89b 7b3f
000000c0: 0411 813f ab3c 823f 4a5b 813f 44fc 803f
000000d0: 173c 7c3f b8e4 803f 5fc7 823f ae91 803f
000000e0: 0461 7b3f 7f7a 813f 01af 7e3f 99f1 7c3f
000000f0: 3bc3 803f 2208 813f 88e0 7e3f d65c 7d3f
